20.pth (torch_old, 67080 bytes, 8 tensors)

l1.weight f8 [60, 100]
-0.06435049940537307 0.22093388044618137 0.19653446839772218 -0.16195549101789875 -0.08324557229184378 -0.11289525702623272 0.042279478884266926 -0.03207907851866691
0.1608137841135846 -0.3124417313729002 -0.21712042851304647 0.013634210139541908 0.05531487932251599 0.040391928209065765 0.11798527387191941 0.21661185235240282
0.12794988496224655 -0.06843309602122555 -0.08006187367768511 0.33119922915889394 -0.051390014728787715 0.045296222336407545 -0.14197710893163532 -0.08060398610932096
-0.23317212141943258 -0.12053686462524744 0.1096297723905418 0.17756287410651586 0.04924112122126855 0.1333547371383476 -0.1566079672016649 0.16398236561182122
-0.09912206407311593 0.016256492077403466 -0.08427525716031375 -0.18013500925761336 -0.2757368757573831 -0.17951449901966088 -0.13922335441036232 0.08970083074661722
-0.14483108321174573 -0.041751961745968943 -0.028601922626879016 0.03229365531823967 0.10140618951116337 -0.19241127770903146 -0.07205080533670552 -0.13622621695951573
-0.061104676708051246 0.2021764007314603 0.10382074228678509 0.04569085514974838 -0.05205595814872845 0.1752514341435779 -0.06801968547695443 0.08179542374565661
-0.08445846642364037 0.10778181033642283 0.07547263256289444 0.15590750085704522 -0.00460583224500561 -0.35869591255560185 0.2589502098045239 -0.07316841252669992
-0.1447741392866767 -0.03900821613754461 0.07538018426679127 -0.1521006532554498 0.04956463324734402 -0.08815831066807418 0.09420526716671741 -0.05100749129454762
-0.13835662539654395 -0.014364465601942981 0.04804856918217854 -0.14010185402694383 -0.0504874165445779 -0.1849613079774848 0.12195284187231212 -0.09974061839165967
0.13284865950711006 0.0004421235439187052 -0.08230942087341543 -0.09178502727215239 -0.01106599683827945 0.1418887600428232 -0.001641223073677471 -0.0685783062386571
0.14640873809511468 0.135314950918147 0.014901089816683574 0.038417639933451764 -0.08408875366975496 0.0007225176634197308 0.20560386244481632 0.020691962245361104
-0.11586386020702058 0.25659205973331217 0.11816008992501198 0.21742547049679783 -0.09455480801162695 -0.028032896050525308 0.10065796525167524 -0.10688205154859184
0.06100942182605814 -0.02972672399012221 -0.2207834458389017 0.16774915303757926 0.03279385896291291 0.05197615313819145 -0.052095893175912386 0.04260049541713667
-0.09049475680791016 -0.23887549587538204 -0.2384382136696483 -0.07833465079822784 -0.038983115418460085 -0.08907521942701078 -0.2093513422623151 0.04182220784535673
-0.21453704178580363 -0.236465674154213 0.01870769512529287 -0.14511064982626076 0.06585312200098095 -0.1462224719980689 -0.007920560327400714 -0.06955569063786529
0.16887640422734487 0.0298826842040996 0.10988457106367752 -0.19052480392388496 0.28940792213634453 -0.0929792087991189 -0.08175021118232476 0.1369889910810363
-0.14965505115936817 -0.15096335062197472 0.09719204779691165 -0.08302665289172208 -0.1994262928739537 0.08213228028838845 0.15610456749218343 0.2835729058653348
-0.02098667349595495 -0.1716236283730215 0.075341614987839 0.25420921477941905 -0.0035849810213896666 -0.08992565350365275 -0.14184111390133816 -0.08773436591985884
-0.20779277950852976 -0.04014634042948676 0.05136380777092887 -0.10919824242598113 -0.1896820040668258 0.1264165614218204 0.05404555034510258 0.18819297129183873
0.10113073813936181 -0.05638526650425192 -0.02055234335715578 0.01220392480746733 -0.04083217352262402 0.2978984727078406 -0.2251267527598552 -0.14039303934542313
0.176393940071875 0.1373904192232048 -0.1037288850962739 -0.11552509838878396 -0.2313539436347813 0.11224347354788757 0.11574459029589845 -0.1969548870542928
-0.12267360906267379 -0.2578102655306869 -0.1293987851256312 -0.15395475449324333 -0.04650514390398446 -0.0631095125680184 0.03288682019410279 -0.20992880614469112
0.042805657545666904 0.2218072133118207 0.11682011567087267 0.291336043114918 -0.20194836083051446 0.07739169019329654 0.1380609404996996 -0.13526913515943356
-0.3385469219877719 -0.10746567344780751 0.30425426276612316 -0.02239859678327018 -0.19495803950144858 0.05778348474084844 0.05781144558147803 0.19602925219719994
-0.23535249097889485 0.13707803719999267 -0.29638533664832595 0.1596882725970736 0.108104740985279 0.058748726877594075 -0.17153418454490055 0.05654533425141026
0.17038192536338817 -0.09146886725846776 0.2562816096257987 0.1063430584632401 0.11499247713799952 -0.05566211612350749 -0.1804628707391505 -0.25691742031367437
0.033361714615706965 -0.3365559839541439 0.08030026371027593 -0.06106098714172969 0.0585020128060714 -0.1011465677428339 0.22129932078802905 -0.34004805374748004
0.15394674704352207 0.10495114242889605 -0.1747706330812753 -0.18010281705488385 0.20213527495366404 0.3555454602517706 -0.14951463366671666 0.01709790459105142
0.058375459070341265 -0.005981334500492251 0.25791934814248313 -0.04071718783707884 -0.35020493527483787 0.009728305522674759 -0.12178543397283026 0.23923440333274631
-0.00112738448236627 0.15461897696303364 0.08258409013995457 -0.09525526883967617 0.05014130958713374 0.037953552828131655 -0.08264374154894495 0.0014470944535730933
0.16405733549115062 0.019790827367402987 -0.2130245402524339 -0.32042262058217325 8.44235512498827e-05 -0.12601407771538423 0.039817011779217655 0.07877209311494704
00000000: 7866 6d3a 4679 b0bf e11f 8cb7 8f47 cc3f
00000010: 0109 279d 0a28 c93f f42c aa20 f5ba c4bf
00000020: f5bf 87f2 944f b5bf 611a cd1c b4e6 bcbf
00000030: 691f 33e6 a7a5 a53f 263a 3f42 ab6c a0bf
00000040: d8c5 c1cb 8b95 c43f 08be 899a 0bff d3bf
00000050: b4e6 e029 9aca cbbf fdbd 3fb5 40ec 8b3f
00000060: df43 585b 3b52 ac3f 8d52 5c35 40ae a43f
00000070: e382 b06c 4834 be3f 52c8 e3ea efb9 cb3f
00000080: bb4b b86d a960 c03f 8c0c 60d5 d484 b1bf
00000090: e625 1a59 ef7e b4bf b9a9 6c40 5e32 d53f
000000a0: 95c3 33c1 ca4f aabf 056a 2203 1131 a73f
000000b0: 292d d24f 4e2c c2bf 284b 447c 76a2 b4bf
000000c0: 85ee ea85 95d8 cdbf 051f 8703 81db bebf
000000d0: 45d6 155f b210 bc3f 59b8 a258 61ba c63f
000000e0: 4f06 87da 2136 a93f 0650 639d c411 c13f
000000f0: e74b b6d8 ba0b c4bf d434 b6c8 5ffd c43f
00000100: 758c 8147 1060 b9bf 6bd0 47b7 8aa5 903f
00000110: dc93 5d31 1093 b5bf 4324 d0fa a90e c7bf
00000120: 9d77 eb47 aca5 d1bf 1040 39c3 54fa c6bf
00000130: 1216 0425 12d2 c1bf 9412 7b36 a2f6 b63f
00000140: 9b5a eb2e d389 c2bf 9e4d 7c5c 8360 a5bf
00000150: 0603 2489 d249 9dbf ed96 eb42 cb88 a03f
00000160: 14fb 8f8b c1f5 b93f 9928 92c8 eea0 c8bf
00000170: 3255 92ec eb71 b2bf 3b76 5955 dc6f c1bf
00000180: c7fd 2fb8 1c49 afbf 0512 9592 eae0 c93f
00000190: daa7 c404 ff93 ba3f c45a 30b1 ca64 a73f
000001a0: 7318 9f1b 14a7 aabf 54a4 1c95 a36e c63f
000001b0: e593 9bf4 bc69 b1bf ef36 f37d 8bf0 b43f
000001c0: e5eb 28ef 119f b5bf f5a4 7fb6 9697 bb3f
000001d0: 9cc4 99a8 2c52 b33f b1e8 b0e8 c6f4 c33f
000001e0: 4882 cfad 90dd 72bf e2a6 68b3 dff4 d6bf
000001f0: f6c6 99e6 a392 d03f 8804 e742 2abb b2bf
00000200: 4c7b c580 f587 c2bf 360f 2c89 e2f8 a3bf
00000210: 083c 31a2 1d4c b33f a658 b7c1 0878 c3bf
00000220: bad0 ab1d 8960 a93f f5a2 3005 8b91 b6bf
00000230: e98c 971d d61d b83f 8f13 ec65 a71d aabf
00000240: 95ac a17e abb5 c1bf 5cff e0ef 1d6b 8dbf
00000250: 199c 8372 d299 a83f dfcc 9388 dbee c1bf
00000260: 8144 d695 7cd9 a9bf 81f3 64e8 cfac c7bf
00000270: 5eef 7e2b 4d38 bf3f d532 13e6 9988 b9bf
00000280: d642 f353 2f01 c13f 10c0 7329 9af9 3c3f
00000290: 31d4 cdee 3a12 b5bf 0578 653a 397f b7bf
000002a0: 35f7 24f4 c4a9 86bf c2e6 0630 6929 c23f
000002b0: e016 52db c9e3 5abf 3e96 820e 598e b1bf
000002c0: 78cb fb82 85bd c23f 7e38 6d14 0052 c13f
000002d0: 38d3 7f6b 7684 8e3f 6815 3516 7aab a33f
000002e0: 5e16 f92e d786 b5bf 9c0d 1ade eaac 473f
000002f0: ccdd 9034 3a51 ca3f 291b 8914 4630 953f
00000300: d2a1 6002 41a9 bdbf 53f1 3d1a 016c d03f
00000310: c49b eb59 bd3f be3f ccf2 8c0a 99d4 cb3f
00000320: 3fe9 1670 be34 b8bf 6827 ffce a7b4 9cbf
00000330: 4f7d d66c b8c4 b93f 063b ee43 9f5c bbbf
00000340: 9b48 fb7e a03c af3f fe4e 6bad ae70 9ebf
00000350: 9e29 b0c7 a142 ccbf 7232 1de3 cd78 c53f
00000360: e6bc 824f 5bca a03f db03 cd4b 9e9c aa3f
00000370: 8695 e41a 50ac aabf e751 386d bbcf a53f
00000380: fe0e f314 aa2a b7bf c8de 4ce5 7893 cebf
00000390: 56f5 e9b4 2485 cebf 8d6c 525b bd0d b4bf
000003a0: bc0f a34b 98f5 a3bf 6fb2 5232 a2cd b6bf
000003b0: dcf6 3158 06cc cabf 0078 e26d b869 a53f
000003c0: 0e14 2025 f375 cbbf 5639 8fd8 8144 cebf
000003d0: 7497 fc2a 1c28 933f 740d a75b fc92 c2bf
000003e0: 1a6e 550d c0db b03f 7f03 96ff 6ab7 c2bf
000003f0: b2d3 939c a738 80bf ba52 8ad8 66ce b1bf
00000400: 9d7b 9cf4 bd9d c53f 4b43 7efd 9099 9e3f
00000410: 0eb1 0d2f 6521 bc3f e906 f7e4 1d63 c8bf
00000420: bbd9 31ce a885 d23f 370b 0045 7ccd b7bf
00000430: 121c 78f3 94ed b4bf 7a73 4df2 da88 c13f
00000440: 9891 348f e527 c3bf 7771 e85e c452 c3bf
00000450: ac10 b8fa 93e1 b83f 31c5 dd16 3c41 b5bf
00000460: 4a96 edfe cc86 c9bf 36d7 c801 9f06 b53f
00000470: ae4c 1106 3cfb c33f 8a4a 2ef9 0e26 d23f
00000480: 3f90 44d1 877d 95bf 419f 8a57 c3f7 c5bf
00000490: 328d 668c 9649 b33f c871 f4b9 f644 d03f
000004a0: 9bf9 cb07 405e 6dbf 2e9f de1c 5e05 b7bf
000004b0: 559c b780 d927 c2bf 7070 5c68 c275 b6bf
000004c0: f2c2 2a2c f498 cabf b5bf 65a6 0f8e a4bf
000004d0: a1f9 2565 5b4c aa3f 9b11 0080 6af4 bbbf
000004e0: 2daa 0dfa 7f47 c8bf 0e60 7dfa 6a2e c03f
000004f0: acfc 73be dbab ab3f bb8b 8410 b516 c83f
00000500: 51cc ed3c b4e3 b93f e258 3997 87de acbf
00000510: 51f3 4c6a ac0b 95bf b683 720f 5ffe 883f
00000520: 1ffc ce63 f4e7 a4bf dbbe 73c1 c410 d33f
00000530: ed74 4714 f4d0 ccbf 988d 492c 66f8 c1bf
00000540: ef1f e99d 1394 c63f 6b77 ac5e 0296 c13f
00000550: 0298 23e9 f98d babf 356f 7287 0d93 bdbf
00000560: 3e23 db8a 019d cdbf c9de 1300 fdbb bc3f
00000570: 7082 02fe 6fa1 bd3f 79c0 5757 d135 c9bf
00000580: 39a8 01a3 8967 bfbf 89c0 c1a0 f67f d0bf
00000590: 1cdc 20af 2390 c0bf 375c ce15 cab4 c3bf
000005a0: 77a7 53b0 85cf a7bf d5cf 8bec f127 b0bf
000005b0: 3afd 6792 8ad6 a03f 609c 7076 f2de cabf
000005c0: d11d 7c86 9fea a53f 1f78 98c3 2d64 cc3f
000005d0: 0643 5250 ece7 bd3f 8ec6 54ee 3fa5 d23f
000005e0: 1bba 9fa2 71d9 c9bf 73c4 5c1a f1cf b33f
000005f0: 1b8e 261c fbab c13f 1280 d5bf 7f50 c1bf
00000600: 1855 86b5 c0aa d5bf 95a4 e6d0 de82 bbbf
00000610: 15f1 0fdf e678 d33f 6549 a462 a8ef 96bf
00000620: b220 e091 62f4 c8bf b9f5 6b02 cc95 ad3f
00000630: c5bf 3638 7699 ad3f 1587 9f8d 7c17 c93f
00000640: a7ab e4c9 0720 cebf 300d 63eb c58b c13f
00000650: dfc8 fa33 faf7 d2bf 17f9 2d52 aa70 c43f
00000660: e806 1397 c0ac bb3f f7e6 3d29 5014 ae3f
00000670: a018 6208 d5f4 c5bf edcf b392 82f3 ac3f
00000680: 35f4 a12e 13cf c53f 4c2f 7af1 806a b7bf
00000690: c82d fafa ea66 d03f 7098 4176 4c39 bb3f
000006a0: 0fff 97a0 2570 bd3f 33d4 c0b0 be7f acbf
000006b0: 41c4 fb47 6819 c7bf 5446 81c3 5571 d0bf
000006c0: 5707 6d62 c914 a13f 24cb 161c 228a d5bf
000006d0: 74ed 7ede 8e8e b43f 0fa0 abbd 6243 afbf
000006e0: e526 81cf f9f3 ad3f f6e0 8ed0 bde4 b9bf
000006f0: 3caf b440 8953 cc3f f67c 7ae9 58c3 d5bf
00000700: 5052 f0e9 86b4 c33f 42f2 68fc 13de ba3f
00000710: 4951 b154 e25e c6bf 7c87 95ee 9b0d c7bf
00000720: 51a0 a595 91df c93f a672 01bf 41c1 d63f
00000730: ab9c efa6 4b23 c3bf dedc 31f4 1c82 913f
00000740: 5234 315f 63e3 ad3f 328b 0e41 e27f 78bf
00000750: 41c4 5127 c081 d03f 586a 4a1c e2d8 a4bf
00000760: 72ce f9f5 c169 d6bf 31e8 8510 6fec 833f
00000770: 88df 0a88 542d bfbf 3a34 32a1 3b9f ce3f
00000780: 0d80 d5de 9778 52bf add7 b2fc 8dca c33f
00000790: 6e2e 521e 3b24 b53f 2027 7038 a662 b8bf
000007a0: 86f0 b529 1fac a93f 05e2 53e8 a56e a33f
000007b0: c1fa 2be7 2328 b5bf c766 8cd6 8db5 573f
000007c0: f33b 4dad d4ff c43f 7a11 37f1 0b44 943f
000007d0: 0498 d05c 6344 cbbf a523 13e1 cd81 d4bf
000007e0: 0191 0791 9121 163f 49c4 4fb3 3a21 c0bf
000007f0: 6916 d536 e562 a43f 5823 c46b 682a b43f

l1.bias f8 [60]
-0.037232512448051994 -0.07995861936759754 9.875258404914475e-05 0.05467568785549477 -0.05104913732512598 -0.05311490808865845 -0.045475163802024425 0.12294413591697932
-0.009966204274349478 0.09202402844222468 -0.0321767544306387 -0.10564266844323097 -0.09098011247975779 0.10113828301556019 -0.003800949381169161 0.005319283006526886
0.10374191754482763 0.04221800654791179 -0.03354807838614627 0.13293739206046026 -0.0581917878715604 -0.04143609925174269 -0.003901023330295994 0.027448793986281972
0.0550444526295376 0.1430256207927181 -0.06074868764938775 -0.024340096973126876 -0.10127242902574646 -0.08925360588942846 -0.06325878065942668 -0.08273187767693246
-0.0978408623659211 -0.06813281746349772 0.10831176959116323 0.1098210481028692 -0.0349283255527977 -0.013048652028311982 -0.026403602578502366 -0.049662138668838084
-0.014253478657529725 0.06853113671241842 -0.04277380961286915 0.05889669061268518 0.08259886371706279 -0.021484073882825923 -0.025546716325467966 0.036745394295073334
0.0021402980266380894 -0.11457831206784572 -0.1645504750725174 -0.10996540849414453 -0.029927938116952876 0.11889057121434107 0.0681335085812019 0.013766349812577554
-0.0019765277360563834 -0.0058397197214067765 0.09506564719709695 0.10950281479053693
00000000: 4ae5 9fce 2310 a3bf ba96 3707 2b78 b4bf
00000010: 8566 bd79 2ce3 193f fa88 73a6 73fe ab3f
00000020: d5d1 99ce 1c23 aabf 8b77 5792 e031 abbf
00000030: 2fb0 9e4a 8548 a7bf 7b97 ff52 4479 bf3f
00000040: 4781 634b 2969 84bf f003 9b00 e38e b73f
00000050: 0d29 f1b7 7879 a0bf fe9d 06de 650b bbbf
00000060: b0dc afff 784a b7bf 8ae8 ecd1 32e4 b93f
00000070: 1adf 2529 2b23 6fbf b2b8 d128 acc9 753f
00000080: 2751 148f d48e ba3f 96e7 d93a 999d a53f
00000090: 9137 06b7 362d a1bf b358 a8ab 1704 c13f
000000a0: ccb5 9b63 50cb adbf 69f1 51c6 1c37 a5bf
000000b0: 4d59 fcf3 09f5 6fbf 4061 f161 891b 9c3f
000000c0: cf7b bd57 c92e ac3f b9bc e5dd a94e c23f
000000d0: aa44 75b5 731a afbf fc97 ec41 9cec 98bf
000000e0: 8ced a66a fdec b9bf f25c 5806 53d9 b6bf
000000f0: 9ff8 1d3a ba31 b0bf 6887 f594 ea2d b5bf
00000100: 24f6 1248 190c b9bf 6641 cafe 2671 b1bf
00000110: 9c7a 2af4 51ba bb3f f1a6 0372 3b1d bc3f
00000120: e317 e81f 20e2 a1bf 8e74 bf6d 40b9 8abf
00000130: 7bf5 48c6 8b09 9bbf 2339 ddda 506d a9bf
00000140: 18b0 8185 ed30 8dbf c202 f0ae 418b b13f
00000150: c140 d3e2 72e6 a5bf 8c58 0c00 b527 ae3f
00000160: e6fe 59fa 3225 b53f c2a9 d8ca ebff 95bf
00000170: 5363 8d1c eb28 9abf 474b 8dd5 4ad0 a23f
00000180: 373a e6c0 8788 613f 268b 2917 0155 bdbf
00000190: 1c26 7d6e fd0f c5bf 1b73 2c69 b126 bcbf
000001a0: 0fcd cbed 6da5 9ebf 3e19 2bcb 9c6f be3f
000001b0: 1635 1e97 3271 b13f 16b0 d731 8831 8c3f
000001c0: f54d 8d3f 1431 60bf b23b 8ad3 63eb 77bf
000001d0: 4e42 afe5 3856 b83f a965 5860 6008 bc3f

l2.weight f8 [30, 60]
-0.21011114594946773 0.13564801666894127 -0.05495645072074663 -0.036906246787378305 -0.1621293010637903 -0.200298704154117 -0.1316615703646122 0.2126581897381478
0.0041154646083065745 0.07971865955999842 -0.31835063512363776 0.01006623253863003 -0.025773444953299054 -0.22141055045295757 -0.10790383472792917 -0.18459578254459505
-0.24417820024494782 -0.13210941904186435 0.3287183507277171 0.34240013551622017 0.22286739175431788 -0.08478195535703245 -0.011825117405714295 0.02132438599739552
-0.34103755524619994 0.2386065393304781 -0.3029956596478689 0.20533020795749918 -0.027542347207574442 0.06620335017143404 -0.2510765516855561 -0.0717089804051995
0.17605601066562734 -0.0663271468498359 -0.18222865239139371 0.3292018454773714 -0.017845299421356337 0.10557685070353497 -0.021221099364509978 -0.08172841702611633
0.11007475145490808 -0.22149276581138824 -0.08824492692869244 0.1447034835980467 0.2721652221418095 0.07591363752699923 0.15903578580645822 -0.13219913773845252
-0.05998418648376222 0.0754832951562117 0.13282813365988885 -0.0944044650191697 0.18841258841317104 0.15238571034575804 0.09448746867691 -0.3084984760396971
0.025253206863412876 -0.15572264830009527 -0.13456674429125678 0.014754082308456835 0.35590065591686604 0.2175636850527084 -0.11694101441170178 -0.1770092480078113
0.028757656597371246 -0.05053580056877071 -0.09298803783271883 0.1197247175402803 -0.20949235806319091 -0.2773860427435999 0.03965171973699722 -0.14838302995876945
0.034448197066525015 -0.027666183690910555 -0.1478035812323813 -0.11457183263367741 0.09467040868730209 -0.023010732886095033 -0.3042742148677732 -0.2476511324621607
-0.10428934046256112 0.33889396428704865 0.11915476327350048 -0.09425208718702542 0.2828773168783103 -0.04340882878240142 0.18359392202727098 0.16465058503232732
-0.10016230181883641 -0.1788131616480963 0.340671588789576 -0.005465774785113696 0.29286664165789983 0.1304294079227195 0.17421690468233855 -0.1259018024239727
0.11436571316069008 0.1010150693808925 0.20270664685460896 0.13514278159564785 0.20262839623890344 -0.2824690013478735 -0.25118329065257494 -0.2502998659624429
-0.07555024978424543 0.1678420026611424 -0.24646597936289144 -0.120810991636904 0.3146316687918214 -0.055544333112803414 0.11323960572686756 -0.16994877790331925
-0.1723274591518877 0.07594412602383985 -0.24970440823976406 -0.14137522948841375 -0.14509681487450093 0.3465608190413665 -0.27129843218532856 -0.2674968958170632
-0.18904777304124457 0.13996480942327555 0.0908775608365267 -0.09821573526483618 -0.35028923009272217 -0.1223212471975803 0.12817427491270797 -0.08130483445489692
-0.24694413452947558 -0.04384505443840858 -0.08956178751877018 -0.22666073940305068 0.05386793995634723 -0.26999429853605467 -0.3402721279348699 0.05201719825286773
0.22631323550456317 -0.015287415415126791 -0.13404352979175335 -0.030717695766519185 0.017423493243167068 -0.11572842167609605 0.0505225193609422 -0.24203521916292542
0.11119620479755696 -0.0490042549254004 -0.031052006501273804 -0.1003896605728231 -0.21601681409993828 0.014332026561307852 -0.0011314521528632175 0.17699897938893627
0.19092188475291014 -0.14907098334242078 -0.18228139291191026 -0.21532613694375916 -0.2126850634294534 0.14069866779775372 0.16407229597974482 0.006360110511979289
0.2160487821757842 -0.15505470503030092 -0.14888706071481703 -0.04648582192449768 -0.1369096401627559 -0.0541961955381756 -0.15219748178687822 -0.16956318632977685
-0.11563616632015383 0.23082537000950432 0.22083251138728632 0.23193066833185214 0.03155977240761913 -0.2059348767444282 -0.19378261764199756 0.033673080709678074
-0.16091780548278073 -0.2221773358896513 -0.016445133645054406 -0.19052215082015922 0.12372245051037187 -0.18525868511166993 -0.04487695308436902 -0.06253561218207739
0.01673730277956109 -0.11732715961538187 -0.0628317333355232 0.2934110558980103 -0.022797679443204825 0.22910006236894762 -0.2614919733772079 0.3049404244245085
-0.12555650533689944 0.24629132254855976 0.18504044776929407 0.10025727084480544 0.10694087183787836 0.17307279315917723 -0.2474130383294265 0.2521006473215825
-0.10238593844686444 -0.012522212640249747 -0.08178275219269043 0.08019205982175166 -0.13473963752929158 0.14623243339045405 -0.12242110260979328 0.21884735265053173
0.18146111689881417 -0.060388429805853364 -0.04455234062338718 0.04577110290281666 -0.16550493639857852 0.3087503389187507 -0.018175963093784102 0.09664043002441984
-0.22591642104959284 -0.30616730371338535 0.10493070920361516 -0.21250727831574634 -0.11309804202946122 0.3194106572886161 0.17379415540872617 0.01436939706770363
0.07170418792531566 0.18843321249949974 0.1083292530292918 0.14913239574904075 -0.29732168968816053 -0.22558397399831714 -0.24198940525333953 -0.27546879131248125
-0.18110171195309224 0.012037681454960996 0.14768870418864274 -0.19002529991336403 -0.2516616135319913 0.22217957943292818 -0.02608446898814229 0.28497635397150417
0.003148445454610407 -0.33180772814430903 -0.18788090514360972 0.21622009121262445 -0.04201229363840696 -0.22274878211546847 -0.1099195512929508 0.21932268783948364
0.2693111885246268 0.3419615152118273 0.045254958560941014 -0.23433993536508263 -0.10035906532825091 0.2379955424741545 -0.034604053574415296 -0.1567984205257808
00000000: d663 300a ece4 cabf 7620 ae09 ea5c c13f
00000010: f284 197d 4023 acbf 1096 f025 60e5 a2bf
00000020: a86a e526 a7c0 c4bf 54f5 e24f 63a3 c9bf
00000030: cf91 6d4d 49da c0bf b571 1331 6238 cb3f
00000040: f489 689e 60db 703f 45ef b02b 7168 b43f
00000050: 1f14 a157 db5f d4bf 7cf7 60dc 9a9d 843f
00000060: e7fc b79c 5a64 9abf e1a7 9750 2e57 ccbf
00000070: 56fa 44f1 959f bbbf 9b18 81a8 d5a0 c7bf
00000080: 4b5e 3934 3b41 cfbf 88a1 2321 f6e8 c0bf
00000090: 5b1e 7eb1 b809 d53f 620a 0c42 e2e9 d53f
000000a0: a3fd 762f eb86 cc3f 96a4 8c2d 45b4 b5bf
000000b0: a231 3b64 c437 88bf c647 dd51 0fd6 953f
000000c0: cc5f 9f2e 8fd3 d5bf 46a0 84b9 a88a ce3f
000000d0: 701f 41e8 4764 d3bf 9e77 07a0 4248 ca3f
000000e0: 45e3 0ba2 0f34 9cbf cd37 dfe7 b3f2 b03f
000000f0: ee0a 9262 a311 d0bf 6b7a ab0d 855b b2bf
00000100: 3b5b 09dc 0089 c63f d299 8ede d0fa b0bf
00000110: e324 35bb 4453 c7bf 06ec 069e a411 d53f
00000120: d5b3 9bc5 0946 92bf e981 fca0 1507 bb3f
00000130: dadf 05df fbba 95bf e0f0 474e 27ec b4bf
00000140: 8039 9de1 db2d bc3f a5f1 bafc df59 ccbf
00000150: 3f57 3233 3897 b6bf 7edf d5cc a485 c23f
00000160: 164a 0dae 276b d13f 4ab5 7f7e 136f b33f
00000170: da58 77dd 485b c43f ddb1 92be e6eb c0bf
00000180: 3c29 734e 3fb6 aebf 431a 178c df52 b33f
00000190: 8f6a 0725 8300 c13f bb8c da19 e42a b8bf
000001a0: ded3 b158 e71d c83f 8208 28fd 5f81 c33f
000001b0: 1562 d9ab 5430 b83f a734 5d64 70be d3bf
000001c0: 12d2 6306 fadb 993f 7f03 d940 b8ee c3bf
000001d0: 2719 eeaa 7b39 c1bf ea7f fa67 6337 8e3f
000001e0: c46c 728b 13c7 d63f cc9f 0c78 20d9 cb3f
000001f0: 3f96 75a8 d8ef bdbf b53c a431 3da8 c6bf
00000200: 7598 61aa a572 9d3f 2faa 7015 d4df a9bf
00000210: 2226 6965 10ce b7bf 44bc 5b72 47a6 be3f
00000220: 8958 5245 a5d0 cabf f4d6 7c63 b1c0 d1bf
00000230: 8149 00ef 3a4d a43f 9a26 7a12 37fe c2bf
00000240: 6f20 9daf 31a3 a13f 1e5f a128 8654 9cbf
00000250: 0af8 cf4d 3aeb c2bf 8755 3462 9454 bdbf
00000260: a4fe 35e5 513c b83f e7a2 cf24 2090 97bf
00000270: e6e1 778e 3a79 d3bf 2205 5f45 08b3 cfbf
00000280: 11ad 9bca b4b2 babf ba2d 5b4f 70b0 d53f
00000290: 471c 6c33 ed80 be3f b34a 0ca0 e720 b8bf
000002a0: d071 3176 a91a d23f 96c6 f497 ae39 a6bf
000002b0: 0cfe 6c71 0180 c73f 1c95 fd36 4513 c53f
000002c0: ad9e 9a92 3ca4 b9bf 56bc af84 59e3 c6bf
000002d0: 05c4 2135 90cd d53f 1899 30bf 4763 76bf
000002e0: 59a4 00ba 53be d23f 107c bb2c e9b1 c03f
000002f0: e9af 0252 bd4c c63f aa8e f5dd 8c1d c0bf
00000300: ce12 cf45 1247 bd3f 04e4 64a3 1fdc b93f
00000310: 1d10 7699 4af2 c93f 2034 9fd1 5b4c c13f
00000320: 7623 8b2f baef c93f bd10 bbdc f813 d2bf
00000330: dee2 a914 6313 d0bf bc1e a0ba e904 d0bf
00000340: ba28 07dc 4257 b3bf 7691 29c4 d87b c53f
00000350: 7259 787c 328c cfbf cfec 131a 78ed bebf
00000360: 31cb efdd ec22 d43f 852e 658c 4e70 acbf
00000370: ea75 3553 45fd bc3f 9e82 8bad e1c0 c5bf
00000380: 0f4c a180 d30e c6bf 727f 9801 1371 b33f
00000390: dd45 8765 50f6 cfbf 7401 8f61 9518 c2bf
000003a0: 42e3 514d 8892 c2bf a0e3 f66d 0d2e d63f
000003b0: b64a 6c19 f45c d1bf 2936 d44c ab1e d1bf
000003c0: d900 4ca9 b732 c8bf f22b 88eb 5dea c13f
000003d0: 94ae bb77 c043 b73f b841 ea9a aa24 b9bf
000003e0: a6e9 d884 236b d6bf 4fcd 51fc 7150 bfbf
000003f0: d923 78bf 0368 c03f da8f fdc4 64d0 b4bf
00000400: 9f1e df8a dd9b cfbf 0001 cfe5 db72 a6bf
00000410: 8f4a 5d74 85ed b6bf e1fa 8217 3803 cdbf
00000420: b4af d420 9494 ab3f 7967 942a 9647 d1bf
00000430: 371e 4ebf 04c7 d5bf 0ab7 a68a ffa1 aa3f
00000440: 1070 9204 d5f7 cc3f 7f97 fc29 024f 8fbf
00000450: f315 59a0 5628 c1bf 0418 e7aa 7574 9fbf
00000460: e45a a5d6 76d7 913f 1d08 51ba 60a0 bdbf
00000470: bfc9 bb70 16de a93f 7a79 6493 02fb cebf
00000480: ae79 0bbf 5a77 bc3f 41f4 89f0 1517 a9bf
00000490: bbb4 97e1 18cc 9fbf 0b4e 0405 23b3 b9bf
000004a0: 1e01 f95f 70a6 cbbf 0c05 ee0a 1c5a 8d3f
000004b0: 5419 967f a789 52bf 5c4f f30d e7a7 c63f
000004c0: f75d 8dd9 2070 c83f 3d7f 1e0b c214 c3bf
000004d0: f0ec 9c26 ff54 c7bf 11e0 128e ce8f cbbf
000004e0: e57a e39f 4339 cbbf 871c 64f8 6902 c23f
000004f0: 44d1 b42c 5200 c53f 1ac9 5d2a 0f0d 7a3f
00000500: 398f e48a 7ca7 cb3f cb18 9923 d5d8 c3bf
00000510: 93aa 4830 bb0e c3bf 606b c959 fdcc a7bf
00000520: 01ca 804d 4186 c1bf 45e4 ce8e 9abf abbf
00000530: 0573 6703 357b c3bf 482b f219 3fb4 c5bf
00000540: d872 94f0 549a bdbf e492 a38b af8b cd3f
00000550: 0ca6 265f 3d44 cc3f 7b5d b675 e7af cd3f
00000560: 6648 b83c 9a28 a03f df8e 5cf4 125c cabf
00000570: 9c1f a76a decd c8bf 5aa9 ce18 993d a13f
00000580: ca41 f263 f498 c4bf 997b c793 4e70 ccbf
00000590: 4245 bc3c fed6 90bf 34d4 77a3 0763 c8bf
000005a0: 3618 b946 46ac bf3f 0663 ed7c 8eb6 c7bf
000005b0: f2d7 aeab 1cfa a6bf d948 2879 5502 b0bf
000005c0: 9ff0 3e60 9523 913f 080b 7b19 2709 bebf
000005d0: 8aba d38f bd15 b0bf 5c79 572a 3fc7 d23f
000005e0: 5174 885e 4658 97bf af6e b19d 2653 cd3f
000005f0: 4595 74d4 48bc d0bf 866c 88d7 2484 d33f
00000600: 906b 1c4e 3c12 c0bf 433c d15b 7986 cf3f
00000610: b49b cdc7 67af c73f 8bf3 76e3 75aa b93f
00000620: 0f40 261b 7a60 bb3f cc17 39d1 3f27 c63f
00000630: fb4b 1dfe 3aab cfbf effb e2c0 6a22 d03f
00000640: d415 3301 f735 babf 7081 1bee 3ea5 89bf
00000650: e462 0be6 b6ef b4bf 1553 5582 7787 b43f
00000660: cae3 5400 263f c1bf 4e64 838f beb7 c23f
00000670: 64a0 0c48 fd56 bfbf 92a0 39a7 3003 cc3f
00000680: acbb 492d 1e3a c73f 5257 2576 3beb aebf
00000690: 3d1a e07b 90cf a6bf b88e 235c 4f6f a73f
000006a0: 3f48 9408 442f c5bf a03c 12c8 90c2 d33f
000006b0: 7e92 3e3c b89c 92bf 5b1f 6d5e 6dbd b83f
000006c0: 73c8 044c d4ea ccbf 5f6c 23bf 3e98 d3bf
000006d0: 3228 602c bddc ba3f cc98 4341 7033 cbbf
000006e0: 6417 c247 fef3 bcbf 231a c365 3971 d43f
000006f0: aab3 db0a e33e c63f 6290 c0d3 b36d 8d3f
00000700: ba1e 20a6 345b b23f 6431 955a 941e c83f
00000710: acfe f546 77bb bb3f ca14 4235 c516 c33f
00000720: f888 668d 5107 d3bf c688 6987 efdf ccbf
00000730: 9f52 c542 82f9 cebf 4e5e 70da 47a1 d1bf
00000740: 4948 0b45 572e c7bf 898b 5941 36a7 883f
00000750: 974a 3da5 76e7 c23f c82e 45c0 bf52 c8bf
00000760: d7d2 f14f 391b d0bf 6771 c065 6170 cc3f
00000770: b84c f314 e3b5 9abf 3338 1c76 0d3d d23f
00000780: 8667 58c8 c4ca 693f c426 3c7b 563c d5bf
00000790: 423d 9143 7b0c c8bf b188 3f96 19ad cb3f
000007a0: aeef 69a6 a282 a5bf 3d73 3437 0883 ccbf
000007b0: 1685 fe0d b023 bcbf 914c c50d c412 cc3f
000007c0: 1b40 cafe 643c d13f 6fd3 148d b2e2 d53f
000007d0: 268d 006e a82b a73f a217 45db d9fe cdbf
000007e0: a124 71b7 21b1 b9bf 4a98 c24f a376 ce3f
000007f0: ad81 d25c 9fb7 a1bf e680 1c7c f811 c4bf

l2.bias f8 [30]
0.004086763324830044 0.08909430288527957 0.17319548696323936 0.055252376542325815 0.02011173191866061 0.23030489194526918 0.11847355592885588 0.24682375756294778
0.2360893688877208 0.06506405185094838 0.11095736152329046 0.07232537335365842 -0.11465022823907275 0.21157735409051995 -0.3371448125061037 0.3757208064403795
0.2655356386342641 0.13304042911613612 0.0308563638939511 0.17900541048585633 -0.21623297870244446 0.1565273793431476 -0.13622084682438584 0.043750673612979685
-0.06992383693858073 -0.09884670700493921 -0.2631578579982331 0.12816163105385892 0.3149825270736874 -0.1418539922054417
00000000: ffe7 392d 48bd 703f 33f6 265d e2ce b63f
00000010: 4334 290c 452b c63f 1c17 8d1c 0a4a ac3f
00000020: cf1f 6d7b 2b98 943f 65c2 8175 a17a cd3f
00000030: 4fbf 2770 4854 be3f aae9 4dbf eb97 cf3f
00000040: 582c 272b 2d38 ce3f 9c56 d8a6 09a8 b03f
00000050: 0534 fe9e b367 bc3f 8196 3969 ea83 b23f
00000060: 6608 c4a4 b759 bdbf a94d 327c f714 cb3f
00000070: 81b4 eed5 c793 d5bf ada4 0548 cf0b d83f
00000080: 2ad3 f630 89fe d03f 0cc0 0c02 7807 c13f
00000090: a625 3187 cf98 9f3f ea01 ec37 a6e9 c63f
000000a0: 2afd ebb1 85ad cbbf 3e8c 9ad3 1609 c43f
000000b0: ec73 1249 af6f c1bf f001 b100 7d66 a63f
000000c0: b8ae dc50 87e6 b1bf 4d4c e78d 044e b9bf
000000d0: b26b 720e 94d7 d0bf 503a fdae 9967 c03f
000000e0: 6ff2 2579 ac28 d43f 242a aa88 4528 c2bf

l3.weight f8 [10, 30]
-0.018704911209621637 -0.11306128373661448 0.23598789320284771 0.11776123485450848 -0.4745258164772461 0.3647947718610093 0.3252966212901757 0.13031007077795376
0.3056757049510371 0.031997650141321755 -0.21421920375299996 0.11958396543338475 0.19785698501163762 -0.21573445039700384 -0.47436852259027207 0.1681780239452279
-0.33492487834730966 -0.10779025357056506 0.2429207549009544 -0.32912951065341955 0.35771901861659144 0.14172292945147283 -0.23369254522192998 0.20704498693184972
-0.4423435224142234 -0.11328063429691473 -0.0765845068720503 -0.23560402229686556 0.17250535257624083 0.31515716017659007 -0.15091300362642754 -0.056056751463762114
-0.2707419956259878 0.47782807943107963 0.28164073982013615 -0.13890623113255865 0.08189299358433912 0.24202115159108145 -0.15945655456794014 -0.03854259147227175
0.052345498665379506 0.25430363400811207 -0.1545172863297683 0.5706579655950786 0.010599718337097833 0.020821240675418125 0.21710288700861247 0.4355861094165202
-0.08236559274179668 0.17506432981548617 0.28317820247434894 -0.28570319703750147 -0.17965299071522045 0.0015471720257068061 0.5032229915493377 -0.3272036593868705
-0.04600765740134444 -0.07829896666809465 -0.4524752163228052 -0.13055518924767048 0.1572641038780289 -0.34377303549796534 -0.03973268719785239 0.25602146340343734
0.19589355136177097 -0.01436342135553898 0.1455203429980845 -0.4231409440632537 -0.17579646996693063 -0.23064743599626616 -0.3315907568514319 0.30700705948292767
-0.26219099282124797 0.08880693015944681 0.1873179514790292 -0.32281491206852303 0.2783821688805433 0.14427096569124506 0.09310831916845139 0.06257698318616509
-0.018910929340540256 0.16411787488035903 0.19747294641579227 -0.1718946760808117 -0.20476591620676088 0.015483224424926894 0.0771501058156401 0.021547223894739658
-0.09616565799353667 -0.11592340531559195 -0.0651210520230908 -0.27853650919766043 -0.20914662664113048 -0.2824150053154819 -0.13195826944316996 -0.05583293398409764
-0.4125292744973294 0.2249940249357062 -0.10191013719905145 -0.13401103829232014 0.14849422414437516 0.20341399306123842 0.33925460409359287 0.10092004464242875
0.1295738975209748 -0.1446458208145976 0.1588275337913351 0.18808520376296425 0.048301999794015595 0.1616052330136558 0.2657504724954743 -0.2029602182778063
0.34420728892135205 -0.26739490390722215 0.3017379495463321 0.049277807748168236 0.07422044315664196 0.312312897389814 -0.2636599585999144 0.12286293459223241
-0.049943024074486427 0.3789863472222486 0.03274522293499345 -0.02819104363845103 -0.37444325044659027 0.4478119291167741 0.16932759525240382 0.4007078628631925
-0.15535401016368625 -0.09980591113001934 0.0972335229102374 0.305411487750298 0.26266572431245894 0.018870370616752338 0.12177110496699212 0.5236917778112957
-0.3032145635868289 -0.38288500192593405 -0.20529016248644838 -0.2594929097565423 -0.330194468883161 0.3734869014567316 0.2139014133898635 0.17525273377377493
-0.4215303538117967 0.11313615418988533 -0.41726454934039675 -0.12155873296116772 0.33072925494845024 0.4733822629866631 0.20152385799317757 0.09107536663903656
0.49755496800921245 -0.4986707453182248 -0.2829693588863312 0.06713349914236605 0.277768712069232 0.11570753355696202 0.23062581288004674 0.18753082319389916
0.1955027865583719 -0.2491911890537563 0.41979128128128085 0.09109649365036311 -0.3159343812278864 0.5964401349377644 -0.17071246893038708 -0.4326924165119754
-0.3628105071668289 -0.1410901210062013 0.3888930056633452 0.43955181546648386 0.18246079160962123 -0.13837657993194208 0.2683952854048603 0.13744681523880317
0.10376584995827115 -0.21677862568878492 0.4199344425676766 0.2501366530743504 -0.04519505496154939 -0.4117343915264636 0.28838848196570516 0.22842086643761123
0.40784510494772624 -0.29812450606035695 -0.40404646448536746 -0.38635364822401785 -0.10144213236790528 -0.3686687064359071 0.10171057661531335 0.3212896577409226
0.3090299330426615 0.29455363063614587 0.07059513452624934 -0.20442440650633362 0.2488664384478027 -0.20212442131176586 0.39786067320228097 0.26530978801274585
-0.05797956519941059 0.0079865675694152 0.3467553637252535 -0.15094397896473014 0.1962177072055319 -0.36591411925356765 -0.32413070863152166 -0.15121940633665498
-0.07926401153100134 -0.2895433789610286 0.3651871511104486 -0.1625046431149139 -0.45557669135451767 0.3382517602495289 0.006242892605602085 0.21685898203649806
0.1670926240887848 -0.07699104723601435 -0.32173912012608896 -0.3231759694395124 -0.40381630741995606 -0.05538252956634117 0.06961818054896055 0.1674424268594523
-0.26335375022543556 0.08732705920390016 0.2418523790677036 -0.0536880487237384 0.051159421985940166 0.2440908289849814 -0.22502747870256348 -0.24327144709808882
0.07516066253468243 -0.048710028661978856 -0.08038252202550415 0.2936804556502407 -0.1753485528230741 0.13823576349495192 -0.32087324008237594 0.0012796785916124763
-0.055694716365423655 0.08950935243337371 0.3118383440512833 -0.3854672601482541 0.01940537930842251 -0.13460217489680068 0.18374587323426286 0.0027189083300266878
0.3905298702508656 0.1392896781826602 -0.0020748412020219842 -0.2107781264710863 -0.17842026261593924 -0.10949904811290767 -0.16588696370123723 0.22368174874938362
00000000: 8efc ad57 6127 93bf 6eb0 1794 95f1 bcbf
00000010: 2b72 c7ed d934 ce3f deca 6fac 9925 be3f
00000020: 7828 b887 a15e debf aa44 b92b cc58 d73f
00000030: d332 7ceb a8d1 d43f 3c56 2a1a 00ae c03f
00000040: a192 fcd4 3090 d33f 85c8 cff9 fe61 a03f
00000050: 78ab 25ed 886b cbbf dd91 a904 0e9d be3f
00000060: a87f f4af 6053 c93f 6aaf 89bc 2f9d cbbf
00000070: 48bb b1ca 0d5c debf 9615 6084 db86 c53f
00000080: 1295 c7c1 686f d5bf 81c2 e95d 2498 bbbf
00000090: 8fdc e8fc 0618 cf3f 38ea 1939 7510 d5bf
000000a0: f363 874f dee4 d63f a12f 8b19 fa23 c23f
000000b0: 550a 8627 a3e9 cdbf 3d26 d63b 7380 ca3f
000000c0: 4575 9734 5b4f dcbf 6a4c 93ab f5ff bcbf
000000d0: 6f4f 65d0 0a9b b3bf 8e19 49c9 4528 cebf
000000e0: 7296 d9c7 a714 c63f 8bc1 03f0 882b d43f
000000f0: ebed 8e07 1e51 c3bf f282 8374 78b3 acbf
00000100: 5c83 373c d653 d1bf 2816 9139 bc94 de3f
00000110: 30eb afe1 6606 d23f f964 f6eb adc7 c1bf
00000120: c15d 3771 f0f6 b43f e610 8391 8cfa ce3f
00000130: 3346 8087 1269 c4bf 0ac4 c0c3 dabb a3bf
00000140: bea2 b879 07cd aa3f 2267 d4bf 8246 d03f
00000150: a6fc b9f1 38c7 c3bf 23d9 6d7e d442 e23f
00000160: 0251 d61c 4eb5 853f 1f61 0dcf 2952 953f
00000170: b0da c803 07ca cb3f 124b a28f a4e0 db3f
00000180: 9944 2457 e915 b5bf 4978 a009 8268 c63f
00000190: 3350 a477 971f d23f ace0 e80f f648 d2bf
000001a0: 300f e083 defe c6bf e9cc 1b50 4f59 593f
000001b0: 0f97 691a 671a e03f 33ae 0c9e e7f0 d4bf
000001c0: 8806 cfcf 508e a7bf 5f6a 26ad 660b b4bf
000001d0: a8d8 169c 5af5 dcbf ab27 124e 08b6 c0bf
000001e0: 2fd5 7eeb 3a21 c43f 5477 2d9e 6000 d6bf
000001f0: 90a6 31c0 d757 a4bf a613 19d9 a762 d03f
00000200: 174d 4c36 0a13 c93f 637d d8c7 916a 8dbf
00000210: 412c 0a1d 69a0 c23f 556a 16c1 bd14 dbbf
00000220: ab4e a1ac 7f80 c6bf c54e 41ed da85 cdbf
00000230: 664c 1570 c838 d5bf 03b3 07f0 00a6 d33f
00000240: 2346 deba bcc7 d0bf 2567 b10c 0dbc b63f
00000250: c42f c7dd 08fa c73f ffb4 7fe0 ffa8 d4bf
00000260: 356a c871 03d1 d13f 87ff b393 7877 c23f
00000270: 2e64 d061 f2d5 b73f ee54 4490 0b05 b03f
00000280: b8e5 37fc 625d 93bf b56b a684 d001 c53f
00000290: e0ac 5923 cb46 c93f 1dd2 0f0e a500 c6bf
000002a0: 14c5 b800 c535 cabf 4361 5534 abb5 8f3f
000002b0: f171 5cfd 1bc0 b33f 8b3c cab7 7910 963f
000002c0: a59f 1404 509e b8bf 2ee2 ab02 28ad bdbf
000002d0: e764 b8f4 c5ab b0bf b9bd 6fcb 8ad3 d1bf
000002e0: 3c06 bf10 51c5 cabf c4b2 ee62 1613 d2bf
000002f0: 5efb d831 02e4 c0bf f4ba 0063 2296 acbf
00000300: e7f3 a62f e166 dabf 5477 72ad 9acc cc3f
00000310: c49a 6662 c816 babf d25e 6211 4627 c1bf
00000320: 7728 2cd6 db01 c33f d096 df3f 7809 ca3f
00000330: b85c 66f1 58b6 d53f ff05 4063 e5d5 b93f
00000340: a848 22a2 e095 c03f 4a6d f316 c183 c2bf
00000350: 7d47 abeb 7554 c43f adff 820b 2d13 c83f
00000360: 4db5 e42a 0abb a83f 74fb 53f3 7aaf c43f
00000370: 5def 1045 0e02 d13f 9833 f2b5 99fa c9bf
00000380: e791 3d02 7e07 d63f 5d82 d983 ff1c d1bf
00000390: bbde 50b0 ac4f d33f add7 64d9 f03a a93f
000003a0: 5d6a 0d68 1c00 b33f d920 1a3c effc d33f
000003b0: dce2 dc04 cedf d0bf 78d7 f6fd f173 bf3f
000003c0: 9963 20ce 2192 a9bf c1cd bcf3 4f41 d83f
000003d0: 0a49 365b fbc3 a03f 5d78 dee9 1cde 9cbf
000003e0: 1511 b8d2 e0f6 d7bf 7b2c 945d f3a8 dc3f
000003f0: e0ae f5d1 86ac c53f 76d6 8f97 32a5 d93f
00000400: 4d4d 7ae4 a3e2 c3bf ff3b 4054 e18c b9bf
00000410: 1c6e f9d0 4be4 b83f 7c74 ed9f dc8b d33f
00000420: 3ef0 ece5 83cf d03f 3f3f a622 c152 933f
00000430: f456 6e21 642c bf3f 9046 5c42 15c2 e03f
00000440: 99af 910e de67 d3bf 71a6 5918 3081 d8bf
00000450: ecef 08b3 f246 cabf c7af 3c26 889b d0bf
00000460: cb16 4bfb e721 d5bf 266d cf9a 35e7 d73f
00000470: 1df0 891b 1f61 cb3f 0ce6 0b7c ae6e c63f
00000480: 8426 f972 5afa dabf 29a3 3db2 7df6 bc3f
00000490: a39e 4c5e 76b4 dabf 8985 9c1e 791e bfbf
000004a0: e960 7509 ab2a d53f 2830 821e e54b de3f
000004b0: 9ae3 b8a5 88cb c93f 4695 2f19 b750 b73f
000004c0: 11f6 e3ca f0d7 df3f 3347 a7b3 38ea dfbf
000004d0: d5f5 8b83 2b1c d2bf 5452 4837 a92f b13f
000004e0: ff1e 8c6b f6c6 d13f 5529 8748 029f bd3f
000004f0: a273 f789 2585 cd3f 750c 4e90 0201 c83f
00000500: 0ac5 453d 3c06 c93f 5ef7 b733 7fe5 cfbf
00000510: 3ef0 0f40 dcdd da3f 6132 028d 1952 b73f
00000520: b691 c3d6 4438 d4bf 788b 329f 0916 e33f
00000530: a5a7 89fb e7d9 c5bf 6f5a 8988 3bb1 dbbf
00000540: 1d4f bb8f 4938 d7bf 1352 c1b7 3d0f c2bf
00000550: c7e6 3d7d 9fe3 d83f c7dc 14f0 9d21 dc3f
00000560: fffe 610e e05a c73f d085 abe2 52b6 c1bf
00000570: bbb9 4d6b 632d d13f fbeb 3174 db97 c13f
00000580: cc2d 0314 6690 ba3f 600f e7e9 66bf cbbf
00000590: c5b2 52b6 34e0 da3f 0e0e 1f2a 3d02 d03f
000005a0: dd65 0066 ce23 a7bf dda7 8f34 db59 dabf
000005b0: 937d a5f6 f474 d23f 3e69 891b e53c cd3f
000005c0: 1363 e55a 221a da3f b395 eace 7814 d3bf
000005d0: 6ddc c1b3 e5db d9bf 1aff f3a6 04ba d8bf
000005e0: 6ce7 f490 1cf8 b9bf a8da 4ca1 4498 d7bf
000005f0: b856 3850 b409 ba3f 3594 227f 0290 d43f
00000600: afcf f97b 25c7 d33f 1505 a078 f7d9 d23f
00000610: a905 0cd2 8512 b23f f775 3936 942a cabf
00000620: 9647 1aff dada cf3f 0fe4 a089 36df c9bf
00000630: 7d2c f19c 8c76 d93f 2eb3 b4e7 d5fa d03f
00000640: 1d4c bc60 7faf adbf cbb9 24f4 425b 803f
00000650: 3267 ba68 3d31 d63f 953f 97de 2152 c3bf
00000660: b403 ac6d a91d c93f 8aad d50d 236b d7bf
00000670: 7fe8 4cba 8ebe d4bf 9844 5e52 285b c3bf
00000680: c581 4671 a54a b4bf 0b4d daf3 e087 d2bf
00000690: 1515 bced 395f d73f ed37 d0bf f3cc c4bf
000006a0: a500 8c23 2b28 ddbf a383 05b6 eaa5 d53f
000006b0: 930f 2db9 2592 793f ee65 d8fd 08c2 cb3f
000006c0: 8d9c ee85 4a63 c53f 28a6 f66d afb5 b3bf
000006d0: 7643 b2ad 5f97 d4bf 9b21 e642 eaae d4bf
000006e0: cf73 7d5a 20d8 d9bf 32ae 8352 195b acbf
000006f0: ea30 aa40 7fd2 b13f 0780 a9e1 c06e c53f
00000700: 19d2 1fb0 c9da d0bf e02b 56ef 105b b63f
00000710: 4f1d 47cd 04f5 ce3f a9b5 e8fa ff7c abbf
00000720: 43ae 9f58 9131 aa3f 2e3c df47 5e3e cf3f
00000730: d94a dd4e b3cd ccbf 111f abce 8423 cfbf
00000740: 363b 88ab ba3d b33f c54b 2e58 85f0 a8bf
00000750: 9300 45ef f293 b4bf 967f 1f1c a9cb d23f
00000760: 0255 e345 d271 c6bf ac98 aca1 b5b1 c13f
00000770: e02e 14ea 2f89 d4bf cccf d26c 5cf7 543f
00000780: 6ef0 b292 0484 acbf c431 63bd 15ea b63f
00000790: 20b3 55d0 28f5 d33f 8dfd 00df 7eab d8bf
000007a0: b00e fcf5 00df 933f 4f7c 93e1 a43a c1bf
000007b0: a576 281a fc84 c73f 7515 77cb f645 663f
000007c0: 7aab 35ff 70fe d83f 8681 3b82 3ed4 c13f
000007d0: 522e 6de3 41ff 60bf 5ce6 f313 c7fa cabf
000007e0: 5089 70a4 79d6 c6bf b08b 962e 2108 bcbf
000007f0: 98fb f6b5 c83b c5bf c89b cb81 9aa1 cc3f

l3.bias f8 [10]
0.16233054247274478 0.2021645950680199 0.13574779179785898 0.012678798071218137 0.28203678046227315 0.41983187503573016 0.08459795625196294 0.08091067786602593
0.27495208020560624 0.12190248523742289
00000000: fffb 8749 3fc7 c43f 0df5 1c8a 87e0 c93f
00000010: ab54 2303 2f60 c13f e239 8c78 57f7 893f
00000020: afb1 16ff e30c d23f 4c32 4683 86de da3f
00000030: 5d1e 692f 36a8 b53f 0aef 54eb 8fb6 b43f
00000040: dcd0 1c9c d098 d13f b256 6553 0035 bf3f

l4.weight f8 [1, 10]
0.4423210937714616 -0.19566612725208812 -0.43623852413248754 -0.5613345343467239 0.2389807483613786 0.18097373377781104 -0.4207926504442351 -0.52122699041448
0.47951184273077085 0.5672855681003312
00000000: 8314 0522 fd4e dc3f e1c8 bd70 960b c9bf
00000010: b8e0 99fc 54eb dbbf 614e 64d7 73f6 e1bf
00000020: 17f9 4ad1 eb96 ce3f e95e 01b6 252a c73f
00000030: 9287 034c 44ee dabf 22ed b339 e4ad e0bf
00000040: deb1 a470 52b0 de3f 7f7a 4f10 3427 e23f

l4.bias f8 [1]
0.14161672937351583
00000000: d2e4 9c3a 7f20 c23f
