50.pth (torch_old, 67160 bytes, 8 tensors)

l1.weight f8 [60, 100]
000000 75 eb 43 eb e1 55 c2 bf 5c b2 a8 3b f5 29 ba 3f
       -0.14324592578472176 0.10220272737996922
000010 c7 df f9 c1 65 1a be 3f 19 fd 7b 27 6f 76 b6 3f
       0.11759029374832074 0.0877446624181072
000020 67 2f 45 98 b9 10 aa bf 27 cc 87 68 82 3a bb 3f
       -0.05090885146873241 0.10636153270733982
000030 a9 2c 4e c8 d3 66 c0 bf 92 1d 80 e5 54 de ce 3f
       -0.12813803940330118 0.2411600227935478
000040 97 be 4f d9 f1 3d 9f 3f e2 df e1 cb 9b 5a c7 bf
       0.03050973786224506 -0.1824526544112351
000050 7d 5a 1d 7f 4d c2 9f 3f 80 38 58 e3 0a 63 c9 bf
       0.03101464355799032 -0.19833503819285525
000060 0a 58 a3 6a 9e 03 c0 3f 97 b1 4a 38 32 d2 cf 3f
       0.1251104374593413 0.2486021780836267
000070 e5 e5 85 e2 4f 2c b7 3f 1f 6f 8d e9 47 6c bd 3f
       0.09051989822719227 0.11493348552670256
000080 aa a4 83 59 19 14 b4 bf 7e f4 4a a4 f7 ec cf bf
       -0.07843168673902548 -0.2494191696368126
000090 35 1f 99 84 fd 60 bb 3f 5b e7 43 5f 62 e6 9c bf
       0.1069487045980367 -0.028222596230058055
0000a0 49 54 10 84 59 03 d7 bf 55 d7 ff 06 55 b1 63 3f
       -0.3595794477162753 0.002403894490266826
0000b0 7a 51 a3 21 16 6f c6 3f 80 fe 77 42 80 da b6 3f
       0.1752650894401418 0.08927156088611277
0000c0 6c 32 25 3d a1 2f ca bf 18 ae 2f d1 64 85 b0 bf
       -0.20457854734049208 -0.06453542811475932
0000d0 91 90 24 83 40 d6 c3 3f 18 ce 44 f9 e4 50 c0 3f
       0.1549759521814207 0.12746870204283378
0000e0 31 71 83 75 26 d1 c2 bf d9 a9 49 06 09 b5 b7 3f
       -0.14700775850259043 0.09260612872609587
0000f0 c3 ca cd a7 b4 03 c0 bf 77 4e 82 5a cf ea d0 3f
       -0.12511308854626266 0.26433166350145804
000100 9f 58 26 5a a5 93 c0 bf 71 ae 21 dc 3c 38 be 3f
       -0.12950579549641802 0.11804561971956119
000110 a1 4d c9 15 71 23 b4 3f 1a 7f fb 80 25 4f c9 bf
       0.07866579801457486 -0.1977278594777026
000120 7e 3d 03 13 40 6d c5 3f 66 76 3f 94 ff d6 b8 bf
       0.1673965542636146 -0.09703061456044679
000130 9a ee 7e ac e4 3d b2 3f 97 d0 dd 6f 2e 16 ba bf
       0.07125691615413601 -0.1019009612189755
000140 9c 76 ee d7 8c 44 bd bf 4c 51 9f df 50 04 c7 bf
       -0.11432724258198806 -0.1798192111879281
000150 af 2c 7c 88 43 3b c9 3f 20 83 f0 ed aa 5e b1 3f
       0.19712108768758216 0.06785076436109394
000160 21 c6 82 98 e8 6c b0 3f 91 b3 5d 1f 53 55 89 bf
       0.06416181300553393 -0.01236977519484997
000170 03 7e c2 df f8 63 bb 3f 82 c3 03 6e 31 81 b4 bf
       0.10699420416721499 -0.08009633003145036
000180 44 47 e8 33 00 b7 93 bf ed 81 d8 e3 d5 75 a4 bf
       -0.01925278012101407 -0.039961513579559106
000190 2a 51 c8 5f ef cb c8 3f aa 76 41 a1 f4 d8 a3 bf
       0.19372360398177452 -0.03876461475804878
0001a0 9c 79 f6 c1 fd 5d bc bf b2 2c 3e c3 e0 e3 c3 3f
       -0.11080919251842264 0.15539178403228032
0001b0 f4 96 ec c3 2d ff 58 3f 34 3b 50 74 fb b5 bf 3f
       0.0015256831099547648 0.1238705786674757
0001c0 37 1d b8 51 9e 9e 99 3f 06 00 aa 0e a1 08 c8 bf
       0.025019143808120616 -0.18776334014910406
0001d0 2f 95 ba c8 07 b2 c4 3f ae 97 35 03 98 9f bd 3f
       0.16168305684292636 0.11571645811417738
0001e0 6a 0d c3 2c f2 d3 b1 3f 5d ef 5a f8 25 66 b3 bf
       0.06964028923817059 -0.07577740968093623
0001f0 eb 43 40 3c 85 92 a8 bf 53 8a 8b e2 38 77 b1 3f
       -0.04799286232458385 0.06822543650518158
000200 bf a4 18 b3 1b 9e ba 3f 54 f1 7b 79 d5 09 a7 bf
       0.10397503969638232 -0.04499690158806638
000210 96 71 28 c9 40 37 b6 bf 09 43 02 49 7c ac ae 3f
       -0.08678059493144583 0.05990970984669814
000220 0d d3 a7 6f 01 4f d0 3f 7a 9d 1d ad 85 d7 d0 3f
       0.25482211974967656 0.2631544294913152
000230 3e 12 e9 81 7a b3 c1 bf 16 d8 97 6b f1 86 c3 3f
       -0.1382897505119604 0.15255563500949226
000240 73 b2 62 f5 dc 2e bb bf 6e d8 1a b3 30 4d bf bf
       -0.10618382445199774 -0.12227157948186271
000250 b2 b9 12 ea ae 5d a2 bf 34 90 70 ee c7 81 8d bf
       -0.03587099654520233 -0.014407693828680214
000260 e0 61 41 91 ef 2d bb 3f ab e0 be eb b4 c1 b2 bf
       0.10616967483782203 -0.0732682300139255
000270 08 aa b8 05 75 06 b8 3f 86 b8 25 a5 2d 7c a3 bf
       0.09384852780991804 -0.03805678025206398
000280 67 51 c4 a1 ce 95 c2 3f de 22 ff a8 1c 32 b3 3f
       0.14519675158284004 0.07498339773077187
000290 a0 b4 64 84 4e 70 c7 3f 4c 38 08 db 95 c5 b5 3f
       0.18311482872505724 0.08504616353477096
0002a0 02 d8 a2 c6 73 09 d0 3f 28 68 5d ee fe 42 c4 3f
       0.2505769195371387 0.15829455031308837
0002b0 59 be 4f 31 bd 39 b3 bf 1a 71 d0 a0 63 39 c3 bf
       -0.07509977773565292 -0.15018887855774993
0002c0 ce 9f 20 22 96 ef c7 3f 8a 85 19 a1 b2 68 d1 3f
       0.18699909845713453 0.27201524479286177
0002d0 da e5 22 4c 98 86 bd bf 3a 00 6f 49 87 23 d2 bf
       -0.1153350053672492 -0.2834184853672955
0002e0 e0 c0 20 d6 05 31 b4 3f ec ce f2 de ab 3b c3 3f
       0.07887302854283318 0.15025852571635967
0002f0 f2 6c a3 62 53 0e 82 bf 90 d7 0f b5 68 04 c9 bf
       -0.00881638664980364 -0.1954470523921228
000300 e8 9c 04 83 27 3c 6f bf 44 2e 62 d0 13 b2 93 bf
       -0.003812863513434562 -0.019233998864861115
000310 70 3c ae 2a 66 ff cb bf 65 cf 31 38 b7 8c a8 3f
       -0.21873166164411684 0.047948575601281
000320 01 05 ca 10 7d 47 c7 bf 57 30 b9 4e 76 75 d4 3f
       -0.18186915702612086 0.31966931999045783
000330 30 c6 2e a6 a0 8b c1 3f 5e 33 63 8b 8d 88 90 3f
       0.13707359423055854 0.016145908005273817
000340 24 a3 8f 69 8d 5f c7 3f a0 ed 34 0a a1 fb aa 3f
       0.1826035275874115 0.052701027389470356
000350 51 d5 11 42 29 e1 c0 3f 19 99 da e9 a7 66 c9 3f
       0.13187137342508007 0.19844530981681244
000360 96 ae 0e dd 34 7c c3 bf fc 90 7e 26 2a cc c1 3f
       -0.1522279815084075 0.1390431106530129
000370 25 0f 60 68 9f d3 bc bf f6 93 37 00 83 f5 a1 3f
       -0.11260410593245902 0.035076230789662974
000380 a0 a8 11 ab 8d 0b b1 3f 03 c8 ce bf 73 8b cd bf
       0.06658254076470138 -0.2308182417451122
000390 88 36 93 cb 8d fc 82 bf f9 4a 07 50 05 03 a1 bf
       -0.00927077081214668 -0.033226171511747844
0003a0 94 f8 86 95 f8 39 c8 bf a1 f7 ea e6 8b 39 cb bf
       -0.18926913548597624 -0.21269367957387167
0003b0 66 e2 96 56 2b 4f c6 bf 95 94 15 7c e8 33 c0 bf
       -0.17429105499265346 -0.12658411082080492
0003c0 2b e2 ac 43 8c 6f bb bf 8a 49 b5 ae 75 37 bc bf
       -0.10717083599309578 -0.11022124781928802
0003d0 fc 50 cd f6 26 fc ab bf 0d e8 53 98 36 8a bf 3f
       -0.054658143641661966 0.12320271700801318
0003e0 56 9a a7 0f 48 a5 ca bf 1b 2b 2b 68 95 b4 bf 3f
       -0.20816899074925982 0.12384923737696989
0003f0 e3 8a 86 43 ac 73 b4 bf 58 cb 2e 4e 45 87 87 3f
       -0.0798900284631077 0.011488477180909548
000400 fc af 90 db 3a d8 c8 3f c0 fd 73 bc 17 f1 b0 3f
       0.19409881325680078 0.06617878294854673
000410 f2 56 56 ed 3b ee 92 bf aa f1 07 c5 a8 91 92 3f
       -0.018486915932576183 0.018133770967311648
000420 15 5e 20 b4 2c 3c d3 3f c9 42 5f 48 5f 97 61 bf
       0.3005477675482962 -0.002147375201254274
000430 b0 b6 40 b2 af b9 ce bf 19 ae de c3 94 11 c3 bf
       -0.24004169658421892 -0.14897403301198223
000440 91 59 72 7b cb 59 7a bf 11 4c c3 69 e1 2d cd bf
       -0.006433291294476355 -0.2279626623554525
000450 e1 52 60 81 5e 50 bf 3f 2b 7e 47 64 46 21 ca bf
       0.12232008608436785 -0.204140471424567
000460 69 83 78 83 13 73 b6 3f 2c c2 c3 88 4c 49 80 3f
       0.08769342384085878 0.007952306674696784
000470 9b 06 e0 60 26 32 b5 bf 6d bd f0 63 32 57 d4 3f
       -0.08279647698511854 0.3178220725994468
000480 67 b9 25 79 cf ec b0 bf 21 6b bd ca 9e 10 c6 3f
       -0.06611344058703637 0.17238221072587925
000490 75 16 e9 cc e6 0f a3 3f 14 d5 c1 54 7d a2 8c 3f
       0.0372306943068396 0.013981799267848184
0004a0 e8 c2 cb ef c5 8d b9 3f 0e 6f 3e b3 a2 16 b0 bf
       0.09981953720467696 -0.06284539104529704
0004b0 a2 aa e7 1e 44 3d c5 bf 18 1e 99 ff 38 4a be bf
       -0.16593219288855204 -0.11832004776180616
0004c0 c1 ea bb 6c 9f 0a c0 bf 04 29 ff c7 19 07 c6 3f
       -0.12532418069152665 0.17209169640984368
0004d0 e7 43 7e 59 63 3f b4 bf 68 1e b1 9e 65 8f bb bf
       -0.07909222540753512 -0.1076568138533901
0004e0 fd 95 d0 fe eb 43 c7 3f f1 d9 9d f0 ee 54 94 bf
       0.18176031057480194 -0.019855245052406493
0004f0 67 71 18 4f a9 80 8c bf e2 d2 2c 1e 7a ad bf 3f
       -0.013917277075102331 0.12374079930016138
000500 4c c3 ac e0 15 67 4b bf 51 76 7e 65 70 68 c5 bf
       -0.0008362633537669444 -0.16724972682725306
000510 25 4f 2a fa 5b 36 b6 bf 1f d1 01 ce 66 90 d1 bf
       -0.08676695687819043 -0.2744385730541285
000520 96 3a cd 21 5e cc 8a bf 42 19 04 c8 9e 3b c3 3f
       -0.013085112959428085 0.1502569653168369
000530 a7 d1 a7 e0 93 06 cd bf 1a ec 65 81 ad 3c d1 bf
       -0.22676323384770322 -0.26932847630058776
000540 68 26 ca 86 eb e6 b6 3f da e4 62 f3 e1 bf c7 3f
       0.08946105995905784 0.1855432928476038
000550 9a d5 38 55 5e b2 a8 bf 63 8d 00 70 25 9b 9c bf
       -0.04823584356601458 -0.027935585938519646
000560 2f 3a f9 b5 0e 18 c6 bf 1a 3e 17 01 07 82 94 3f
       -0.1726091755430885 0.02002726501615202
000570 5e 08 b8 3a 93 4e b1 bf 10 1e b4 97 84 d6 bc bf
       -0.06760521110121107 -0.1126482839937284
000580 34 91 8a c0 91 ca c0 3f 13 e1 e9 c0 48 4c c7 bf
       0.1311819257872543 -0.1820155088387386
000590 4f c5 e4 04 de 04 b6 bf a8 46 f4 69 0f 4e c1 bf
       -0.08601176852677848 -0.1351947085718639
0005a0 78 3a de 54 db e6 b2 bf 62 cd de a7 63 da b7 3f
       -0.07383509466147042 0.09317610596081274
0005b0 1d 8e 2a 7d 27 df c2 bf 87 0c f6 b1 3b 63 ca bf
       -0.14743512736923572 -0.20615335645206675
0005c0 c1 f0 7e 2b 0f e8 cf bf 19 9c 8e 35 e1 bd 9d 3f
       -0.24926938651868194 0.029044646161903474
0005d0 fe 56 a0 3e d4 88 d1 3f d8 0b 1b 8a e2 85 c6 3f
       0.273976384314082 0.175960843500518
0005e0 e9 57 34 97 07 eb c8 3f 9f 8d 6d ba 30 f8 d1 3f
       0.19467253573446833 0.280773336466348
0005f0 bb d0 86 d6 55 dc c9 3f 6e 1a 03 87 bb 1e c7 bf
       0.202036599873855 -0.18062538235081455
000600 f0 7c 92 53 86 dc b0 bf ff d5 45 e9 5e fa cf 3f
       -0.06586494007432342 0.24982820883057852
000610 18 6a d2 03 f4 46 a9 bf 93 c0 02 71 bc 45 93 3f
       -0.04936945482878147 0.01882070960772404
000620 fa 8e 74 d6 6a 11 c0 bf 7c 8a fa af 23 63 b6 3f
       -0.12553153487635155 0.08745024725298295
000630 4a 6e 50 13 31 bd ad 3f be d2 50 83 28 f6 c9 bf
       0.05808404312867006 -0.20282465373897723
000640 0b 85 e5 59 17 ce bf bf c5 92 b5 11 d5 2d 63 bf
       -0.12423845238437907 -0.0023411904818878304
000650 52 e7 74 22 a8 bd 95 bf a5 b6 af 1e fb c4 ad bf
       -0.021231295683924963 -0.058143470283409195
000660 4f e5 52 69 79 f2 b7 bf cf f4 bf 98 26 8c aa bf
       -0.09354361363775364 -0.05185051550504626
000670 46 c0 e8 dc ff 35 c6 3f 9f 7c ee 37 d6 58 cf 3f
       0.17352293287831538 0.24489858370813963
000680 82 e5 f1 8b ba 7f 76 3f 0b 18 af bb c8 9f 99 3f
       0.005492905328645549 0.025023590522117483
000690 f8 e8 a6 e1 c2 1a aa 3f bd 67 a4 b5 ae 2b b8 bf
       0.05098542217770502 -0.0944165414297506
0006a0 d3 c2 66 1b 25 26 cb bf b1 73 bb d8 98 ba c8 3f
       -0.21210159147223936 0.19319449026707283
0006b0 c1 ee 1b d9 22 c5 b2 3f 81 ac ef f8 5c 62 cb bf
       0.07332055855288912 -0.2139393058308521
0006c0 60 74 e8 ea be 68 b5 bf 3b e1 32 66 91 d3 7e bf
       -0.08362954363879416 -0.007525985685042531
0006d0 ec 57 f1 18 22 ae c0 bf 37 91 15 1d ee ec af 3f
       -0.1303141233244668 0.06235450844795525
0006e0 42 67 76 90 5e 23 a2 bf e2 a6 7e 64 bf 44 c5 bf
       -0.03542609704454815 -0.16616051108331137
0006f0 0b 4f 99 a2 4d 38 ca bf cb 5e 99 c7 f1 21 c6 3f
       -0.20484323920629097 0.17291090246248184
000700 bd e8 a9 c6 06 66 b1 3f be 06 41 1e ea f2 cb bf
       0.06796305036724255 -0.21835066296812572
000710 80 07 71 40 5e a4 c5 3f 70 1a ab 1d 3c e4 c7 bf
       0.16907861849363925 -0.18665267418528542
000720 a3 5a 25 d7 26 5f c1 bf 47 66 05 c5 5a 90 81 3f
       -0.13571630006000132 0.008576115739447178
000730 55 a3 eb 97 d4 39 9e bf d9 03 5e ac 9b 05 b1 3f
       -0.0295174806332484 0.06649182279762957
000740 f9 33 a6 38 2b 3e c0 bf db d4 21 41 0b 49 a8 3f
       -0.1268972422225543 0.0474322812087082
000750 51 70 49 89 78 bf af 3f d3 5c dd 5b bc 90 c6 bf
       0.062007681616450434 -0.1762919853742689
000760 73 63 48 bf 56 c8 ce 3f f1 7b 2f 60 4a 23 c9 3f
       0.2404888566968811 0.1963894815116585
000770 70 e6 19 aa 4c 7c a2 bf 18 e4 f0 c9 ae f8 b8 bf
       -0.0361045797007592 -0.09754459791373937
000780 95 91 fb e6 37 a7 bc bf 7d 2a 5b 71 9c 32 b4 3f
       -0.11192654980874857 0.07889726417048766
000790 cf c2 c7 74 ab 2d 7b bf 02 26 f7 6d 18 65 c0 bf
       -0.006635350943256581 -0.12808518762021498
0007a0 71 6c 03 5b 3f 07 cb 3f f6 7c 11 4c c8 6f c5 bf
       0.21115867561352133 -0.1674738284518537
0007b0 ea 48 76 54 64 f7 6c bf 2c 26 0f 54 a8 da cc 3f
       -0.0035359344071333914 0.22542289833499873
0007c0 13 30 98 1f f8 26 c1 bf 4a 70 21 3c 80 a7 ba 3f
       -0.13400174658488648 0.10411836116821963
0007d0 8c 0d c4 0c aa 48 c3 3f 9e a2 19 d1 24 72 c0 bf
       0.15065503714877726 -0.12848339281051308
0007e0 8b 5b 84 bd 45 5c b4 bf a2 c4 ec fa 8f 92 44 bf
       -0.07953296543960968 -0.0006278231647681885
0007f0 53 9f f5 ac aa 84 94 bf 24 8a da 08 35 80 bb bf
       -0.02003733330403119 -0.10742503610757886

l1.bias f8 [60]
000000 50 ac d1 db b7 f2 ba bf 4a d6 cf 8b 18 e8 58 bf
       -0.10526608578372643 -0.0015201797207259498
000010 42 5d 76 ce 1c a8 a0 3f 72 a1 67 64 fe 4f a4 bf
       0.032532596781659 -0.03967280364651317
000020 b3 ca be f6 86 d0 a8 3f 97 71 07 b3 4e 1f a6 3f
       0.04846593629863118 0.043207606653342605
000030 49 2d 0d ad 2f 12 84 bf 7a 53 5f 2b 36 eb 9a bf
       -0.009800312489139389 -0.026287886044730403
000040 ea c2 c9 32 3a 95 83 bf c9 ad ea f5 27 8e bd 3f
       -0.00956197230809282 0.1154503798849681
000050 d5 e6 23 10 27 73 96 3f f8 21 7e 90 26 5b ca 3f
       0.02192364727031911 0.20590669684703733
000060 c6 28 f2 d0 11 63 c0 3f ee ee 53 c6 fd 3f af 3f
       0.12802336409033027 0.06103508993143501
000070 a0 69 a6 9f b8 08 9c bf bb 1f 38 4f a5 c0 b4 bf
       -0.027377018684640597 -0.08106454071105322
000080 38 bd d7 29 2e 9c 93 bf 3d 59 7e b4 ef 48 b9 3f
       -0.019150468162419915 0.09876917034703055
000090 a0 f9 d6 22 b8 98 ba bf 5b 17 55 a7 70 1c b3 bf
       -0.10389281130389927 -0.07465271077407236
0000a0 22 eb 7e 4d ff 50 99 bf 99 4a 8a c7 5e 00 c4 3f
       -0.024723042588202244 0.15626129859136453
0000b0 0e 61 5d b6 dc 70 bb 3f 04 bc 4c d8 94 5b c1 3f
       0.10719088985695555 0.1356073433066457
0000c0 1a 56 ae 08 be 2f 93 bf 3f 1f 47 e8 be fa ae bf
       -0.018736809997411986 -0.06050678811476339
0000d0 7b d5 ba 4d b1 b3 bd 3f a9 ef 4d fa 43 a5 60 bf
       0.11602314136219675 -0.002031929749532997
0000e0 9a b2 0d 8b 71 d5 74 bf b0 e7 09 c8 6b ab a0 bf
       -0.005086368110693096 -0.032557838600907885
0000f0 10 01 91 f7 aa 21 a2 bf c6 9d 78 c6 61 c0 b0 bf
       -0.0354131152348619 -0.06543551536071054
000100 a7 37 0b 3e e0 f5 b7 3f 60 b4 cc 76 e5 c2 be bf
       0.09359551920644425 -0.12016138220197226
000110 08 49 9d 53 36 af b4 bf 5f 56 b9 90 74 30 b0 bf
       -0.08079852620474892 -0.06323936970997
000120 e8 14 35 bf 1b e2 ae bf 08 e0 9b 10 71 92 c4 3f
       -0.06031882008623218 0.16071904479008503
000130 0a 6a d3 06 7b 26 b3 3f b4 e6 2c 45 02 cc c0 3f
       0.07480591694494634 0.1312258565683827
000140 cb 51 62 a6 01 ff 88 bf 65 7e 13 86 92 35 64 bf
       -0.012205136194361274 -0.0024669515411089187
000150 4d 8e ae 38 b4 4f b0 3f 70 ed 23 2a 74 a6 a8 bf
       0.06371618636927075 -0.04814494146736592
000160 66 82 1e da f2 7a c0 3f 3e 33 86 12 5a 5a b4 bf
       0.12875209474897814 -0.07950365974666071
000170 ed 8b 56 77 65 49 8a bf 68 2e 92 8b 4b 8a 93 3f
       -0.012835304932030634 0.01908224143384843
000180 1f 1a fe b2 ef eb a0 3f d2 98 58 5b f5 de b1 bf
       0.03305005130737392 -0.069808325578012
000190 8c cd d4 da 89 2d 9c 3f ba 77 be 85 2b 40 78 bf
       0.027517465573692543 -0.0059205722899643935
0001a0 47 4b 83 bb 7c 50 8e bf ce 20 08 d4 20 57 be bf
       -0.01480195471996172 -0.11851697136455927
0001b0 9b 93 4e d1 be f1 a9 3f ae 9d 73 14 4c 31 a9 bf
       0.05067249588981967 -0.04920423268941519
0001c0 1e a0 cf b7 aa 9a b2 3f ac cc 2e 0e cf a4 93 3f
       0.07267252910207886 0.019183383217477853
0001d0 04 ef 35 df 4e b7 ac bf 7f 42 14 9c 7d 9d b3 3f
       -0.056086029765507944 0.07662186680341597

l2.weight f8 [30, 60]
000000 40 ab 95 ed 60 c0 ce bf d6 f7 fd be 68 41 9e bf
       -0.2402459297257682 -0.02954639116023102
000010 20 1b c0 17 7e e4 d7 bf 96 95 70 f2 1c 27 c5 3f
       -0.3733210784852634 0.16525613630180364
000020 ae b3 ff 6f 72 bb d5 bf 7f 10 1b 0d 47 74 ae bf
       -0.33956585824381136 -0.05948087725622119
000030 d6 3f 37 cc cf 1f ba bf c5 1b a5 ef d9 45 c0 bf
       -0.10204790817010631 -0.12713169289983575
000040 f1 ce ed df cf a4 d0 bf ce 88 bf 3b b3 d5 c9 bf
       -0.26005932682094995 -0.20183411042586957
000050 43 2a b5 5d 01 64 c3 3f 41 ca 70 c7 d4 9f ac bf
       0.15148942065782664 -0.05590691504075496
000060 8b 16 f1 24 72 a0 c5 3f dc 39 b0 a4 a2 80 c8 bf
       0.16895891956135176 -0.1914256385939116
000070 7c 25 a4 9d 86 91 c8 bf e7 df 18 ae 7e a8 c0 bf
       -0.19194109628032752 -0.13014205456579406
000080 00 15 4e 26 2b 1e ba 3f 9e 98 d6 45 28 5b cd bf
       0.10202283559018 -0.229344400501934
000090 0b bb 12 d0 4d c6 d2 bf b4 13 c1 13 81 fa d3 bf
       -0.293353512951328 -0.3121645634567429
0000a0 dd 57 27 ab e4 03 d2 bf 32 c6 c8 86 9c c9 ce 3f
       -0.2814876243040752 0.24052769261611356
0000b0 e4 49 e4 23 00 78 cc 3f 0d 2c e1 4f a5 50 d4 bf
       0.22241212608839966 -0.3174222259592064
0000c0 91 a1 1d 75 62 fb a9 bf 3e 4a a7 3b ec 54 d7 bf
       -0.05074603728900507 -0.3645582754662974
0000d0 b5 cc 2e a4 63 75 be 3f 98 81 53 3c 65 97 a8 3f
       0.11897871740693484 0.04803005563167345
0000e0 12 32 45 8f 8d 45 c5 bf 7e 1e ed 72 a7 97 bf 3f
       -0.16618508811588178 0.12340780788246694
0000f0 8e 6c 64 2e da 18 d2 bf 76 b9 cb d0 e9 61 d5 bf
       -0.2827668622064231 -0.33410115614142144
000100 eb af 9f 12 60 c6 ca 3f be 1a 83 32 f3 c1 c4 3f
       0.20917893323291933 0.16216888395702783
000110 77 5b 66 55 a5 a3 d6 bf e3 3e cc a3 78 7c cc 3f
       -0.35373814906909423 0.2225485610765566
000120 9a 2b 77 ee a6 a9 6b 3f 29 ed 01 21 6f 9c c6 bf
       0.003376794851396037 -0.17664898978896673
000130 8b 20 c8 35 eb d9 c6 bf bc 2e ea 73 2b af c6 3f
       -0.17852535368024677 0.1772207561483493
000140 0f 37 fb 3c f6 41 d3 bf eb f7 a0 dd 7c a4 4f bf
       -0.30090099291997857 -0.000965653390501362
000150 b5 7e 18 80 a0 f0 d1 bf 09 dd 37 49 59 18 d2 3f
       -0.2803117037710579 0.2827361311933179
000160 03 fa da 30 09 24 c7 bf a8 8d 0b 02 8b 14 a2 3f
       -0.18078722844616388 0.035312980651521386
000170 5d c5 93 30 3c 2b d2 bf 5b 89 f1 64 a4 2f a9 3f
       -0.28388886207456726 0.04919160587521062
000180 18 1f c8 51 1b 8f b4 3f 91 fa 76 d8 55 1c c9 3f
       0.08030863520263798 0.196177225776371
000190 72 04 e9 fd 1b 2c be bf 80 03 08 c7 7b 40 a6 bf
       -0.11786055516223984 -0.043460720105946926
0001a0 42 bc d2 a2 9b bb cb 3f 9e 08 38 f5 82 0d d1 3f
       0.21666284036970934 0.26644967982441325
0001b0 d2 45 ae 9b fe eb d5 bf 5c 76 5f d9 ac ad d2 bf
       -0.3425289650268414 -0.29185029247114413
0001c0 ff 63 02 36 37 c9 ce bf e0 45 fd d7 0a 96 d0 bf
       -0.2405156148641083 -0.2591578587790462
0001d0 94 aa 35 3f 5d 9e d3 bf 2e 89 d8 25 47 07 d0 bf
       -0.3065407864839156 -0.25044420905955433
0001e0 50 f8 00 b8 e7 e1 d1 3f 53 6e 18 38 d5 a1 aa bf
       0.2794131562149049 -0.05201593694456776
0001f0 12 fa 53 c2 b2 e2 d2 3f 40 fb 9d 01 ed e5 c8 bf
       0.2950865648016655 -0.1945167787452764
000200 8c ba dd 14 55 6b d3 bf a8 7c 2f 79 0e 75 ca 3f
       -0.30342604673106943 0.2066972820020727
000210 06 12 61 5f 9b 5c c6 bf 13 45 6a 7b e2 2c 90 bf
       -0.1747011390417727 -0.015796221525822562
000220 15 20 7e b2 a4 03 a7 bf af e1 2a f6 f2 8b 7f bf
       -0.04494967154374777 -0.007701825207441378
000230 ae e2 97 eb 2a bf a7 bf fa 4c 74 1f 99 97 d1 bf
       -0.046380368479679177 -0.2748778159304518
000240 59 a6 0b 06 04 9c a3 3f c1 63 70 82 0a 47 c6 bf
       0.038299680459954195 -0.17404300088017347
000250 b4 24 35 90 9f 56 b1 bf 0a 86 ce 5d c4 4f cc bf
       -0.06772801657384059 -0.2211842973747909
000260 38 cc a0 45 45 25 d7 3f 49 71 b0 58 32 87 70 3f
       0.3616498165094444 0.004035183587827903
000270 00 69 7c 62 5a 55 bd 3f 9f 8e aa 8e 0f 6e d0 bf
       0.11458363441889574 -0.2567175763344753
000280 44 5a 63 e9 23 9b bc bf f2 89 26 2f b0 4c af 3f
       -0.11174225280715527 0.0611319596821608
000290 77 8e 3d 36 7d 4a be 3f 89 78 15 e3 2b 33 d2 bf
       0.118324113600062 -0.28437325645598627
0002a0 f3 7d a7 f6 2f c6 a2 3f 5f ba 52 54 61 e9 c5 3f
       0.03666829954067543 0.17118469827024094
0002b0 64 f4 db f6 34 43 cb bf a5 dc fd a1 e7 08 d2 3f
       -0.2129884915702035 0.28179350680825116
0002c0 8a 90 dc 7f ec 10 c5 3f 1a e3 68 f5 84 77 d6 3f
       0.16457897418252215 0.3510448834017993
0002d0 81 d0 6a c5 5d cf d9 3f fc 86 8f a9 8c a9 b1 3f
       0.4032816341307424 0.06899336948074714
0002e0 c3 01 24 dd 90 77 d5 bf b4 d7 a9 78 06 18 d2 bf
       -0.3354227218224219 -0.2827163866380673
0002f0 80 d2 4a 24 a3 76 a0 3f f3 c9 98 e2 04 0a d7 3f
       0.03215513055821351 0.3599865162715609
000300 8e 88 d6 5c 72 8a aa 3f 79 b9 a1 80 ed 49 cb bf
       0.05183751471783281 -0.21319359570356847
000310 9d ca 7b e3 1c 77 d7 bf c4 34 57 9a fb 34 cb 3f
       -0.36664507117454 0.2125544074646425
000320 3e 66 69 22 12 30 d6 3f ce 48 22 41 4b 55 cd bf
       0.3466840110828321 -0.22916546516768793
000330 70 3a 45 9e 34 f8 c2 bf 24 69 d7 6a c3 7e b9 3f
       -0.14819963195846553 0.09959050520356932
000340 78 ff 7a bc 8b eb c9 bf 31 b0 af e9 ac fb b6 3f
       -0.2025007887186765 0.08977776246291637
000350 7d f6 66 c6 70 4b db 3f b4 8a 22 95 f8 9f c2 bf
       0.4264795243760558 -0.1455069282720466
000360 55 4d 2e c2 05 6a ca 3f 57 38 ad 7b 3e f1 d1 3f
       0.20636054975021048 0.28034936979100195
000370 26 87 b2 61 ab de c0 3f 02 ff 4b d8 7e 02 a6 3f
       0.13179533262614845 0.0429877890619519
000380 46 62 89 7f 2e 8e c3 bf ac ec eb ee 3a 07 c7 3f
       -0.15277653910995265 0.1799081484421995
000390 ea ae 4c cc 9b 16 c8 3f 35 33 75 6f ae c0 d2 bf
       0.18818995929301902 -0.29301033863594067
0003a0 85 97 de 5f 42 60 c5 3f 1d f4 7e 6e 3a b6 c7 bf
       0.1670000999558249 -0.18524866481121274
0003b0 eb d5 61 14 24 cd bc bf 0c 9d b0 9b c1 ab d0 bf
       -0.11250520227061826 -0.2604831715020317
0003c0 9d 87 79 9b 48 29 aa bf 01 c8 02 d6 ef 27 77 3f
       -0.051096219042633374 0.005653321131989132
0003d0 af a7 69 b1 ae c4 bb 3f fb a0 83 d6 f0 90 94 3f
       0.10846988517155752 0.02008415517130489
0003e0 e6 f9 31 9a b6 3e b1 bf d4 26 09 6e d0 4d b5 3f
       -0.0673631788685963 0.08321860014361998
0003f0 75 7c 95 64 b5 91 c2 3f 0b 5f 0a 63 bc e2 d7 bf
       0.14507167254757616 -0.3732138602440364
000400 b7 e9 97 47 1a 74 ca 3f 20 b1 93 54 a0 2d cf bf
       0.20666817184230776 -0.24357990388615125
000410 a1 03 f3 cd 11 f1 c1 bf 7a ed dd de ba f6 c1 bf
       -0.14016935878865147 -0.14034210092709626
000420 dd e8 4a 70 f1 98 c3 3f 68 67 b3 3d a9 22 d2 bf
       0.15310495360410573 -0.2833655455157129
000430 25 30 fa fd 0e 51 a1 bf c0 27 dd b0 57 ce bb bf
       -0.03382155275639346 -0.10861728733030329
000440 a5 2a 5b e9 7e 89 c3 3f 30 3c 99 e8 68 cc c2 3f
       0.15263353723851938 0.14686309201576497
000450 3a 3b cd 0b a4 ed a4 bf ca 73 bb 67 e0 fb c7 bf
       -0.04087555545867479 -0.18737416329432072
000460 31 16 1e 5e 70 b6 c7 3f c3 36 7f f1 bf 90 6c 3f
       0.18525509448606806 0.003486990823126175
000470 e8 6e 4f 83 e2 02 a8 bf 3e 49 07 e5 87 6f d6 bf
       -0.04689700940045133 -0.350557302151305
000480 5f 90 04 26 9a 07 ab 3f 83 a4 25 ea 8a e9 c0 3f
       0.05279237474522413 0.13212715561829577
000490 ec 4b 28 9b bf 60 a5 3f 9f e4 34 ba bc eb 97 3f
       0.04175375718127569 0.023360203614377736
0004a0 b4 9c 96 ed 1d aa 85 bf 53 eb 60 8c 91 41 d3 3f
       -0.01057837849914587 0.3008769865879703
0004b0 c3 18 b2 38 91 b0 c2 3f 16 a6 1f ee 0f f2 d0 3f
       0.146013405497973 0.26477430586109685
0004c0 df 58 41 12 a2 9c 9a bf a5 2a c4 71 87 60 a7 bf
       -0.025988132824147022 -0.04565833343265994
0004d0 b2 85 d8 48 a7 15 d0 3f 9b 53 13 c8 2f 88 c1 bf
       0.2513216220268887 -0.1369685866290212
0004e0 00 1c 9a bc 43 a6 d1 bf 3a ea 79 42 ff 43 d2 bf
       -0.2757729856315905 -0.2854002141172348
0004f0 fc 8b ed a4 e5 1c aa bf bf 72 35 2c 72 bd c8 3f
       -0.051001716978838346 0.1932814327109522
000500 5c 4b 25 7f 6c 81 d5 3f e8 7f d6 03 f3 65 ad bf
       0.3360244027764361 -0.057418436258785566
000510 72 f2 ec 53 17 b7 8b 3f 17 cf 76 76 13 86 c5 bf
       0.013532812355714106 -0.16815417560939558
000520 27 84 59 c5 51 69 d1 bf 1d 94 3b b1 34 f6 d2 3f
       -0.27205318710736254 0.29627721126445455
000530 52 f3 5e 0e 02 1d cf 3f 9c 38 08 58 df b0 d5 bf
       0.24307275487617602 -0.3389204368294345
000540 4c 80 15 2e 29 76 b1 3f 60 23 a5 fa 6f 4e ba 3f
       0.06820924162957559 0.10275936002029828
000550 3a cd a5 cc b2 cd cb bf cd e0 a2 87 62 bc d2 3f
       -0.21721491806565912 0.2927481007168467
000560 ba a1 9f 46 25 59 cc bf ca 14 07 06 e4 96 a4 bf
       -0.22147050808349694 -0.040213704810903986
000570 b3 3a cc cf f0 97 d0 bf 2d fd 13 f6 cb 1e c7 bf
       -0.25927372257948916 -0.1806273414185652
000580 f4 fc 95 1a 2b 4d a1 3f a7 5d 43 a6 3a 43 d3 bf
       0.03379187297377398 -0.30097833859096074
000590 3f 0c 6d 24 06 b5 af 3f 80 c5 e8 56 39 b9 d3 bf
       0.06192797846463138 -0.30818017470581793
0005a0 d4 6b 73 b5 fb a9 be 3f 5c c1 3b b4 81 e8 c7 bf
       0.1197812383647226 -0.18678304005107804
0005b0 1c b2 34 0f cb dc a7 3f c7 5e db 6a 21 0e d1 bf
       0.04660639343851278 -0.2664874595188675
0005c0 4d 86 5a 80 f8 a8 cb 3f a9 9f 91 02 28 db cd bf
       0.21609407679811668 -0.23325061917716752
0005d0 41 97 c3 bd 76 77 ba 3f b8 10 fd bb a5 f8 d4 bf
       0.10338537342940148 -0.32767623289351944
0005e0 2c 75 00 95 81 ed d1 3f 88 5b 1f 81 38 49 b5 3f
       0.28012122679668283 0.08314850952534247
0005f0 29 8c 19 d1 17 d2 b6 bf 4a 6b 3b c4 05 73 ba 3f
       -0.08914326529479467 0.10331760445425889
000600 5c 7f f0 fd 2c f7 ce bf d8 17 30 a5 37 4a bc 3f
       -0.24191820525538332 0.1105074671068843
000610 ed 8d 78 d4 5c d4 d4 bf 75 dd 6e 8a 36 5c c8 3f
       -0.3254615855132375 0.19031411895205577
000620 42 70 64 7c 66 f1 a0 3f dc 90 59 c6 e7 10 bd 3f
       0.033091738400088846 0.11353920547987023
000630 33 e2 73 10 10 c9 c6 3f 4e 17 36 67 5c da 79 3f
       0.17801094821312943 0.006311760854606009
000640 88 5e dd 4c 74 f8 d6 3f 35 d4 5f 43 da 70 bb bf
       0.35891444689102814 -0.10719074387437007
000650 26 c8 b2 41 00 c0 98 bf e3 25 fd 52 39 e7 b1 3f
       -0.02416992569914824 0.06993444706053924
000660 36 46 06 1f 71 44 d1 3f 72 7f cb e3 c7 51 7e bf
       0.2698023608182639 -0.00740221101725057
000670 80 e0 01 a9 61 18 bb 3f 93 14 6c ac aa 1a d3 3f
       0.10584078193812907 0.2985026058016242
000680 42 5c c5 99 9e 8c cc 3f 5b 61 72 c1 9c 24 c4 3f
       0.22304136761042243 0.15736731954235492
000690 31 48 37 a6 48 2c b0 3f 2e f4 76 1b 25 c4 c2 3f
       0.06317571695333936 0.1466108688454439
0006a0 38 a8 c0 34 4e 08 c8 bf 03 1f a8 34 0d a8 d5 bf
       -0.18775346351441313 -0.33838205473192334
0006b0 f8 37 bd db 89 8f a1 3f 45 b4 78 e4 7b 47 92 3f
       0.034298236917138014 0.01785081464747786
0006c0 cc 87 eb bd a9 88 d5 bf b8 c7 e7 0a eb ef c3 bf
       -0.3364662508666896 -0.15575922043313795
0006d0 ce 42 26 1b 2d 92 ce bf 15 aa 82 14 90 10 cd bf
       -0.23883594346673082 -0.2270679569385982
0006e0 61 be 25 d0 18 d1 d1 3f 08 b3 b1 d2 ad ca a4 bf
       0.2783872635545546 -0.04060881802511146
0006f0 75 d7 94 ee 37 5c bf 3f f1 34 bc 6e ed 64 a7 3f
       0.12250089239827651 0.04569189049480283
000700 31 e0 d1 8b 94 f1 74 3f 70 11 1e ed 7b b4 b2 3f
       0.00511320138786435 0.07306646861076671
000710 a4 c2 91 e1 52 f9 d1 3f 4f 87 07 56 d4 38 a6 3f
       0.28084251430758855 0.043402324201237456
000720 c8 10 f2 5e 10 2c b4 bf 2b fa d6 83 63 a3 cc 3f
       -0.07879736249930425 0.22373622834671045
000730 59 a6 19 ba 8d d9 b4 3f 01 8d 50 bb 02 0f d6 3f
       0.0814446048113039 0.34466617863127175
000740 a3 0f fa 76 8d 2a ca bf 08 81 6c 03 d0 85 8e 3f
       -0.20442360219396702 0.014903664688575194
000750 94 23 06 42 19 c0 cf bf b0 1a ea 11 48 c7 a0 3f
       -0.24804988597705047 0.03277039736444942
000760 fd 9e 1e a1 a0 f4 cf 3f 43 41 39 86 68 d7 c3 bf
       0.24965293757599474 -0.1550112395657469
000770 96 2d 4b f3 97 5c b4 bf 1e 7f ed 3b 37 fd b1 3f
       -0.07953786554133155 0.07027001584128498
000780 43 1f 85 3c 48 f3 bb bf 05 51 29 50 bc 8f c8 bf
       -0.1091809413675238 -0.19188646234636778
000790 85 8f 4f c7 a2 77 c1 bf ee 49 36 23 df 71 a0 3f
       -0.13646349651309833 0.03211877159914765
0007a0 bc 93 43 ac b7 2e da 3f ac fb 0f 80 85 e9 c2 bf
       0.40910140822080243 -0.1477515101723531
0007b0 d9 f1 54 b5 d3 a5 cd bf 85 4b c3 db 4a 00 db 3f
       -0.23162313798992676 0.4218928476449764
0007c0 2a 0d b3 bb f0 b0 d1 bf a2 ef 38 a7 4b 7c d5 3f
       -0.2764245827676911 0.3357113965064348
0007d0 e9 8b 98 ac 8f 1b c9 3f 98 fd 57 32 9d da da 3f
       0.1961536019090027 0.4195931426656556
0007e0 7c 97 a4 18 6d d4 96 3f 06 9c db 56 63 13 d3 3f
       0.02229471648129032 0.29805835230075706
0007f0 1c 6f 7c 81 b5 d2 71 3f 54 b9 31 d3 d4 99 d8 3f
       0.004351338393259654 0.3843891203349774

l2.bias f8 [30]
000000 d0 03 ec 22 90 05 ac bf 9a 10 be d7 85 2d c9 3f
       -0.05472994257252817 0.19670174631403797
000010 82 ed 77 ff 86 a3 d0 3f 07 68 ed cf fd 28 a1 bf
       0.2599809164819008 -0.03351586497474562
000020 0e fe e5 a2 f8 d0 bc 3f e1 1f 4e a4 35 21 a7 3f
       0.11256364800464544 0.0451752436702575
000030 c4 06 f7 e5 4e b6 b7 bf 1a 08 20 fd e1 18 b3 3f
       -0.0926255523145541 0.07459843091785992
000040 39 d9 5e 08 1a 5b 87 3f 3e 60 55 9f 92 21 b5 3f
       0.01140423143429513 0.08254352941492102
000050 5f fe 79 26 8d e0 c7 3f 3c 32 e3 51 c3 30 c7 3f
       0.1865402639268607 0.1811756276932942
000060 c4 f8 31 3e 42 ae cb 3f be 70 62 30 55 50 c0 3f
       0.21625545536875823 0.12745156157041565
000070 d6 9c 5c 38 e5 a9 cb 3f 96 69 21 f1 36 69 b4 bf
       0.21612229587592563 -0.07973044764495393
000080 82 7a 03 2d f2 d4 cd 3f 46 e3 54 cd 86 4e c5 bf
       0.23306109617165666 -0.1664589407535237
000090 08 b5 c0 09 14 0d cb 3f 82 2c c5 d1 c2 8d bb bf
       0.21133661724289987 -0.10763185139983203
0000a0 ec 1a da 00 c3 0e a1 bf aa cb ca 23 74 59 c4 3f
       -0.033315748075485846 0.15897990939774093
0000b0 77 26 7f a6 b7 66 70 3f 41 ad d9 0f b0 fd 9a 3f
       0.004004208931243639 0.026358366935182124
0000c0 49 1b 18 f3 ba 2f bc bf a9 d2 64 b0 08 11 9b 3f
       -0.11010330614963694 0.026432166830277968
0000d0 f1 f0 65 d6 92 64 ae 3f 24 76 9a 53 9e 3e c3 3f
       0.059361065551429955 0.15034846384234968
0000e0 0c 88 fd 60 db 1e c1 3f 1f 18 20 3d e9 6e b6 3f
       0.1337541793428162 0.08762986891096645

l3.weight f8 [10, 30]
000000 69 29 3c c5 50 96 6a bf 91 dc fb 53 ce 23 c4 3f
       -0.0032455041454159572 0.15734271145604287
000010 48 30 62 35 33 32 e0 3f 73 9f 12 c1 57 de e0 3f
       0.5061279337546774 0.5271414538337765
000020 ba 98 c8 96 ff 34 bf 3f e6 0e af 37 1c f7 c3 bf
       0.1219024413227058 -0.15597870558678223
000030 b5 af a1 cc 15 54 d6 bf 5b 6a a0 92 d7 35 6b 3f
       -0.3488821504931779 0.0033215723424409433
000040 e7 65 84 58 8b 0d db bf ec 9a 7d a7 d1 5f e0 bf
       -0.422701679651793 -0.5116966506292022
000050 58 b5 19 32 5d b9 e2 3f 30 2b c7 1f eb 99 ac bf
       0.5851274469875234 -0.055861804608488774
000060 ce 0a f4 04 ca ef ae 3f b8 02 02 a5 0b fd d5 bf
       0.0604231959387299 -0.3435696708111595
000070 6c 6f 86 78 13 c9 ce 3f 3c ae 0e 5d f4 dd ca bf
       0.24051135430351722 -0.20989851516547897
000080 e7 de a0 28 85 fd e0 3f 8a ff e4 b4 4e c8 ca bf
       0.5309472840808355 -0.20923789818516197
000090 36 f6 16 9b 36 47 9e bf 8d 78 4b 56 ab 06 d3 bf
       -0.029568532195972184 -0.2972820608828293
0000a0 55 78 ef 64 2b 36 db 3f 94 45 95 87 12 61 c6 3f
       0.4251812444398458 0.1748374139811345
0000b0 10 c7 ed 89 d8 e3 d0 bf e9 c1 28 22 41 1c ce 3f
       -0.2639066073380585 0.23523725669794196
0000c0 d9 b7 03 7f 93 66 d7 3f 27 d0 aa 83 b7 31 c2 3f
       0.3656357517601215 0.14214223794044864
0000d0 0b ae e8 88 08 42 bf 3f ff 4b 81 7d fc dd ba bf
       0.12210133879187184 -0.10494974197472116
0000e0 19 72 3d 70 ac b6 de 3f 16 87 9b 0c 3b 09 d9 3f
       0.47989951096477196 0.3911883948440943
0000f0 84 d4 5e ee 0a ab c2 3f d6 22 f4 54 4b a2 cd 3f
       0.1458448089521519 0.23151532791259538
000100 f9 01 e3 b0 dc ac d2 3f 19 52 9b 23 5c 90 ab 3f
       0.2918006637010247 0.053835753771327606
000110 6f 36 eb e9 33 8b df bf 65 c2 d1 47 af a1 c6 3f
       -0.49287126392014263 0.17680922514729783
000120 9b 78 8a c5 87 7c d9 3f 59 43 12 6b d3 07 d0 3f
       0.3982257298574809 0.2504776521318966
000130 7c 2a 15 09 cc 35 cb 3f 06 0f 1e 0b c2 48 c4 bf
       0.2125792545651456 -0.15847039740412344
000140 59 c1 5b a2 02 ea e2 3f 86 1b e3 28 fe 9a c4 3f
       0.591065709215438 0.16098000523035355
000150 42 fb 74 53 24 ef e1 3f 3c 9e f1 ff 8a fb d3 bf
       0.560442126275895 -0.3122279643489241
000160 44 bd 69 83 18 ee de 3f 54 74 48 43 09 86 ba bf
       0.4832822116213331 -0.103607729841728
000170 48 e3 c4 5f 86 9d b7 3f 8e 05 08 08 82 1b be 3f
       0.09224738920319198 0.11760723777844914
000180 3a 8a 1d 66 a8 75 df 3f 7d 1d 2e 81 c3 84 c4 3f
       0.4915562627049074 0.1603016262781515
000190 7f a4 97 35 bf dd c6 bf 98 a8 7a ba 58 d4 d1 bf
       -0.17864217869581364 -0.2785856076321891
0001a0 1a 63 b7 d5 14 ce ca 3f ef 01 76 b3 63 3e cf 3f
       0.20941410479897443 0.24409147513144044
0001b0 9f 58 d8 44 da 9d d5 bf 5c c0 69 fa 8b 95 c6 3f
       -0.337759558898492 0.17643880583955507
0001c0 28 d0 47 7d db 98 e0 3f a3 34 a4 1e c6 00 c9 bf
       0.5186593481907993 -0.19533611770785794
0001d0 93 83 92 55 b1 70 af bf 94 fb 16 8d 1a 91 a2 bf
       -0.06140665216049181 -0.03626330349242504
0001e0 cf 53 cb 97 ac 25 a9 bf 99 54 fd 5d 65 14 cc 3f
       -0.049115556268283116 0.21937243546804977
0001f0 be 72 cf 4e 38 41 e0 3f ed b6 d0 0f ea f0 ca bf
       0.5079614199890654 -0.21047712108832375
000200 01 41 11 b6 3b 83 c4 bf 4c 09 cf e7 e4 33 d2 bf
       -0.1602549208641975 -0.2844173682934936
000210 00 50 7b 75 e2 13 d0 3f e9 b0 05 98 a5 e1 d5 bf
       0.25121365998097644 -0.34189739080353704
000220 26 4a c8 09 9a 08 db bf 18 16 f6 a9 34 1c d8 bf
       -0.4224000068217343 -0.37672154042988515
000230 45 ab 82 2c 36 19 ba 3f d0 5f 23 7a 23 32 c1 3f
       0.10194719874077147 0.13434260810640675
000240 83 9c 96 22 4c f1 d5 3f 08 45 d2 0a 62 4c dc bf
       0.34285262468115024 -0.44216204697393424
000250 bc ed 64 d1 15 41 db 3f 6b d9 d5 32 95 cd a7 3f
       0.4258474869600055 0.046490347342955506
000260 3a 92 34 c9 6f 48 c6 3f b9 a8 28 fe e3 95 c9 3f
       0.17408559154968534 0.19988679800127843
000270 d6 1b 6e 54 00 28 dd 3f 34 3b dc 67 1c c9 ad bf
       0.4555664848816695 -0.05817497985673584
000280 26 c4 65 24 14 4e b8 3f 32 41 ab 52 e1 a7 c6 bf
       0.0949413861142295 -0.1769982961327599
000290 af 1f 3f ce eb d2 cf bf bc fc 63 85 95 2a a5 3f
       -0.24862430163034108 0.041340515645055004
0002a0 48 84 f5 51 6f ae ca 3f 5f 80 30 6b 17 76 d0 bf
       0.20844832899004673 -0.25720773189278207
0002b0 ce ec c7 25 17 7f e0 3f e8 d7 48 f8 08 a6 c5 bf
       0.5155139673146552 -0.169129487259567
0002c0 5c 63 29 e6 c1 b1 d1 3f bb 9c 46 4b 4d 28 c3 3f
       0.2764744517967779 0.14966741729333485
0002d0 8b 25 8a 34 e4 7a c2 bf 3e d7 e5 26 1a b5 e0 bf
       -0.14437534871494181 -0.5221071967814408
0002e0 46 98 bb 0f 87 2a b2 3f b2 dc 48 5a 94 a1 db bf
       0.07096141943074583 -0.4317370301900595
0002f0 6c 24 de ae c1 03 e4 3f c5 38 47 4b 99 00 c1 3f
       0.6254585662255869 0.13283077407544944
000300 b7 35 18 87 f4 8a d1 bf 02 e0 4c 6f 07 e0 e4 3f
       -0.2741061515124232 0.6523472951730585
000310 17 ec 5d 6f a0 14 d7 3f e5 f0 aa 3c 73 f2 cb 3f
       0.3606339538161491 0.21833649122516544
000320 57 d7 29 82 3f a0 b2 bf d3 33 a9 92 17 c5 c7 bf
       -0.07275769164865885 -0.18570227299861006
000330 32 c6 ca 67 6e ad c8 3f e0 ea 2a 58 66 2e 9c bf
       0.1927927023694323 -0.027520751124692988
000340 f1 49 99 61 50 4c a2 bf 4d 73 a0 45 99 bb d4 3f
       -0.035738479532159924 0.3239501171063253
000350 da 0a 61 ab 7f 08 8e 3f 81 63 ab b1 71 cb 9c 3f
       0.01466464750058576 0.028119827717862037
000360 8d 8c ce 25 18 61 dd bf bc a1 9b 97 39 14 d2 3f
       -0.4590511674125047 0.28248443417990265
000370 77 7b 0a 08 d4 1c b3 bf 39 44 47 1a dc 93 df 3f
       -0.07465863415062111 0.4933996445298053
000380 03 56 25 82 ec 16 c3 bf 53 e6 a8 1b a8 7c db bf
       -0.1491370807149651 -0.4294834394564521
000390 d8 f7 6f 28 78 48 d6 3f 6f c8 0f 60 fd a4 e2 3f
       0.3481731791397329 0.5826403499797957
0003a0 33 cf 20 8a bd 63 a2 bf ed 75 bd e9 4a 1d df 3f
       -0.03591720877775941 0.4861628801935172
0003b0 bd 78 e4 10 58 22 b0 bf b9 4c 7b 12 55 bd b9 3f
       -0.06302404796994927 0.10054523183071042
0003c0 71 05 52 f1 3a c2 be bf b3 50 ff fc db 94 d2 3f
       -0.12015121833430499 0.29033565241594345
0003d0 d1 01 f9 7e f1 d1 d0 bf e5 9d 6a a7 0c 20 c3 bf
       -0.2628139247863404 -0.14941557097084437
0003e0 7b 72 ca d9 1b 06 e4 3f 19 5b ca 20 ea e2 cf 3f
       0.625745702145266 0.24911238289924922
0003f0 68 9c 47 24 48 93 9e bf 88 a9 ad 5b dd 05 e0 3f
       -0.029858710493411073 0.5007159033387305
000400 bd 1c 5d ae c6 64 e1 3f e6 1f d2 5f b1 e6 e4 3f
       0.543551769785061 0.6531607505321488
000410 77 58 86 b8 66 aa cc bf 4b a0 d1 6b 07 6e a6 bf
       -0.2239502335548342 -0.04380820456646058
000420 11 25 db 1d 94 0c c1 bf 81 ce e5 f2 e0 b3 d3 3f
       -0.1331963678151529 0.30785392494656355
000430 98 fd b5 67 63 65 c6 bf 21 0c 2e 74 03 4e cc 3f
       -0.1749691254044421 0.22113078282208767
000440 95 c1 5e 66 f6 5f d3 bf e2 e5 e4 a6 3e 68 d4 3f
       -0.30273208615383257 0.3188625936341777
000450 9d e5 b0 a3 3d f6 ba bf a7 66 12 97 29 44 9f 3f
       -0.10531983610498803 0.030533456655212145
000460 15 43 51 d0 62 22 d1 bf 55 bd a1 a4 eb f2 e0 3f
       -0.26772375434397705 0.5296533790077925
000470 9e be 0d 2c db f5 d4 3f 21 ce b6 24 1c a7 d9 bf
       0.3275058679782691 -0.40082458100661894
000480 20 62 03 0f e2 b3 c4 bf 84 0d aa d3 6d 07 dd 3f
       -0.16173959477488697 0.4535784308465838
000490 43 80 b4 37 43 f0 ce 3f 19 80 20 e0 76 16 e1 3f
       0.24170723171210015 0.5339922311286528
0004a0 85 65 d8 38 69 af b8 bf 66 2d 93 2e 49 1b d9 3f
       -0.09642655980896649 0.3922903971512909
0004b0 ef e9 fa 1d 52 20 c8 bf d3 e1 e5 8b 32 49 d8 bf
       -0.18848635162233005 -0.37946761762534925
0004c0 2b e1 d7 29 f6 e9 d1 bf 05 5b d0 8d 24 db c7 bf
       -0.2799048813462998 -0.18637520718103687
0004d0 10 56 ed 21 44 2e ca bf 5e ed c7 3d ed fc b8 bf
       -0.20453693062397393 -0.09760935552906377
0004e0 77 4f 3b 3a a6 b8 c2 bf d6 59 a2 01 fe 8c db bf
       -0.1462600502333051 -0.4304804817160436
0004f0 29 22 28 c7 10 62 d6 3f a8 90 0e 85 c8 05 73 3f
       0.34973544548896257 0.004644187240874377
000500 3e a5 53 66 26 6b d5 bf 0e cd 7f f1 fb f3 dd bf
       -0.33466491692395894 -0.4680166109457823
000510 5e 1d bc 79 bf 35 af 3f cb 97 9d 9b cb 2d d9 bf
       0.06095693932553091 -0.39342012593112646
000520 69 7e 8c ec 62 c2 db bf 69 9c 7a ab 0b 74 d7 3f
       -0.433739405636493 0.3664578604315865
000530 33 b2 1c 51 c2 6d d8 bf 7c 99 05 b3 f3 ad c4 3f
       -0.38169916077712 0.1615585922365418
000540 4a 8c 60 48 40 f5 ca 3f b9 3c 2d 82 7a 73 cf bf
       0.21060946973838873 -0.24571162563595353
000550 f6 9c d9 0a fb fb ba bf 4a cb 70 62 fe aa c1 3f
       -0.10540741934675055 0.13803081328077332
000560 6d 6e 85 11 dd 14 de bf c5 15 9d 49 a5 64 a4 3f
       -0.47002340994888564 0.03983036540607147
000570 13 29 fa c9 36 f9 b2 bf 0d 22 75 da e5 2e d1 bf
       -0.07411520415385935 -0.26848741849656294
000580 54 6c f2 fd 02 f5 db bf 71 33 c7 6a 18 e8 9f 3f
       -0.4368293266249499 0.03115881110879876
000590 34 66 f3 a0 f4 21 cf bf 9a d6 c1 83 a9 4d d9 bf
       -0.24322374209332198 -0.395365122479555
0005a0 cd c6 9f 8b 77 e3 ce bf b6 18 af 63 a2 0e ba 3f
       -0.24131674115738236 0.1017858022088117
0005b0 45 59 b9 f6 ce f4 c3 bf e0 3f 7f 87 29 2f c0 3f
       -0.15590846106597148 0.12643927684848588
0005c0 7f ed cd 71 40 02 d5 3f ac c1 f2 fd 41 94 e2 3f
       0.3282624350901741 0.5805978736807922
0005d0 ad 24 89 28 5c c5 ad 3f 33 80 e7 18 32 6e 9f bf
       0.05814636225529433 -0.030693800706899487
0005e0 48 0e 72 0a c8 5a 9d bf 08 21 d1 53 49 2b 6f bf
       -0.028666616094154912 -0.0038048202682469147
0005f0 b3 fe b6 58 e6 dc b9 bf a1 d2 0e fb 01 39 d3 3f
       -0.10102691331757789 0.30035447614072025
000600 7d 26 6c 2f 9f b9 96 bf a3 87 6b 24 bb 04 a9 bf
       -0.02219246603912105 -0.04886421985226199
000610 fb 39 b7 f5 c4 43 d8 bf 2a 93 30 46 72 40 b0 bf
       -0.37913631435085876 -0.06348337377182803
000620 01 41 cd 27 28 f2 c9 bf f3 c0 95 f5 ad f2 d6 3f
       -0.20270254081197694 0.35856198294551617
000630 4a 33 00 f1 f4 d5 c0 3f 0e 19 27 18 e6 79 9c 3f
       0.13152944343201006 0.027808757042088898
000640 e9 21 ab 6e cd 4a c6 bf f1 c3 96 0c a4 53 db 3f
       -0.17415779021963765 0.42698003034007487
000650 19 4f 0d 46 5c 6e a2 3f 91 da 07 d2 6d 9f ac 3f
       0.03599823336722192 0.055903846634398076
000660 06 4c 03 98 0a 77 b5 3f 32 7a 52 e4 a7 bf e1 3f
       0.08384767733814166 0.5546454867761155
000670 df 4d 4e 66 f8 08 db bf 2a a0 45 47 0a ce e3 3f
       -0.42242250433738876 0.6189013855009808
000680 63 13 de 79 b7 c6 ce bf 99 e4 d6 83 2b ca d1 bf
       -0.24043935251770696 -0.2779644763464347
000690 8c 4c ba 5d 12 0f 90 bf aa 95 8f 15 bb 4c d1 3f
       -0.01568249413555782 0.2703082762294239
0006a0 3d 1d 8e 3d 02 17 d9 3f 69 76 c7 d4 7a 55 ad bf
       0.39202934275859375 -0.05729278418924084
0006b0 15 ca 16 3d 20 9f dc bf b0 30 17 7f 19 97 e0 bf
       -0.4472122761318656 -0.5184447748411198
0006c0 0e f6 d3 67 cb 6c d9 bf d1 ce f3 18 76 d2 d5 bf
       -0.397265292543893 -0.34097053944354366
0006d0 76 66 97 4f 3d 3a c7 bf cc c0 eb a6 96 ee d9 bf
       -0.18146482836054972 -0.40518728543157745
0006e0 e8 6b 53 46 5f 28 c5 3f e4 42 78 d9 68 c9 b4 3f
       0.16529456075554028 0.08119826611824582
0006f0 07 f5 b1 4a fe ba b7 3f 64 71 f1 6d a6 9c ad bf
       0.09269704173671665 -0.05783577053145697
000700 b4 60 cd 65 18 0a e4 3f 0b 3f 67 db 17 00 aa 3f
       0.6262323368382767 0.05078196099532136
000710 64 b8 0e 1d 32 28 c8 3f 86 32 0f 60 e1 62 d3 bf
       0.1887266771204309 -0.3029101789550527
000720 48 08 0c 50 c0 1e dd 3f 86 de 21 c5 83 8e cc bf
       0.4550019056042669 -0.22309920430756253
000730 92 b6 84 22 34 6d b1 bf 0d 9f a6 d9 d7 e6 cb 3f
       -0.06807256548628463 0.21798227431758513
000740 f4 ee e7 5e 53 7b d4 3f 8c f7 95 a3 20 03 dc 3f
       0.3200272013489063 0.4376908872144376
000750 bd b9 2f e2 35 94 99 3f 4e d5 c3 a0 e4 0c a9 bf
       0.024979440622638672 -0.048926491379385526
000760 84 02 54 a6 c8 1d a3 3f 75 c3 55 f9 4b 0c 8f 3f
       0.03733660726903046 0.015160172983742485
000770 11 c2 f0 24 39 13 d1 3f 65 e1 9d 15 26 23 d0 3f
       0.26679829223124424 0.25214531050689565
000780 44 45 6a 6a 5b e9 cf bf a7 7d c7 f0 a4 56 db 3f
       -0.24930899330187561 0.427163348327634
000790 15 c5 63 c7 28 9c e0 3f 1e b5 40 a2 09 17 d5 3f
       0.519062413628634 0.3295311054706235
0007a0 c5 cc 66 16 9a d4 9e bf be 9e df 7a 37 60 d9 bf
       -0.03010788690307888 -0.3964976024567298
0007b0 ef f5 a0 3c 38 2b b4 3f ad f8 3d db 71 68 d1 bf
       0.07878447990602643 -0.2719998017345329
0007c0 bf c6 e0 09 f1 73 b3 bf 6d 4d b3 4c c4 0b d6 bf
       -0.07598787776148706 -0.34446818819306807
0007d0 8e 3c 83 4c 5d 0d dc 3f 4d 44 a3 b8 3d 5a a1 3f
       0.4383157012170579 0.03389160994414251
0007e0 0a e1 b1 11 b5 80 c1 3f 97 81 70 c8 d9 cd cb 3f
       0.1367403351212107 0.21721956526836259
0007f0 92 e0 1e ac 4f d0 d6 3f a8 ed a3 50 66 90 db 3f
       0.35646430786756256 0.4306884562972422

l3.bias f8 [10]
000000 d9 f1 38 26 29 d3 a1 bf a4 45 1b ea 39 91 b8 bf
       -0.034814153590989334 -0.09596597638598908
000010 82 ce 1c 06 b4 53 d4 3f 7f 7d 63 8e 43 10 d3 3f
       0.3176088390057218 0.2978676691545487
000020 cb d5 42 1f d1 09 cc 3f fe a4 51 8f 22 db c2 bf
       0.2190495875017134 -0.1473124694632943
000030 3c 93 b9 49 bb 03 ae 3f 4f 35 9e f4 83 70 9b 3f
       0.05862221980058854 0.026796399884508045
000040 64 4a 8b 04 42 8b cc 3f 99 db 18 08 00 7c 94 3f
       0.2229998132884986 0.020004272932250797

l4.weight f8 [1, 10]
000000 4c 2d 1d ff c4 51 e1 3f 6f ca e2 e5 96 e0 e0 3f
       0.541231630582311 0.5274157037695896
000010 9b 77 4f e7 44 5c e6 3f 33 d8 39 49 5e d3 e2 bf
       0.6987633245259873 -0.5883017950243413
000020 93 35 7c b4 95 19 e5 bf 70 7e 39 e5 28 55 e0 3f
       -0.6593731427289405 0.5103954770128905
000030 d9 6c 82 39 64 48 ee bf 6c 34 39 a2 24 05 e6 3f
       -0.946336853335562 0.688127819864929
000040 30 dc f2 35 8c 58 e1 3f b5 b8 b9 6e 84 73 e9 bf
       0.5420590451893812 -0.7953512346846511

l4.bias f8 [1]
000000 e1 74 87 14 f1 c6 b9 3f
       0.10069185973357576
